{"format": "graph-model", "generatedBy": "2.3.0", "convertedBy": "TensorFlow.js Converter v2.1.0", "userDefinedMetadata": {"signature": {"inputs": {"input_1:0": {"name": "input_1:0", "dtype": "DT_FLOAT", "tensorShape": {"dim": [{"size": "1"}, {"size": "-1"}]}}}, "outputs": {"Identity:0": {"name": "Identity:0", "dtype": "DT_FLOAT", "tensorShape": {"dim": [{"size": "-1"}, {"size": "521"}]}}, "Identity_1:0": {"name": "Identity_1:0", "dtype": "DT_FLOAT", "tensorShape": {"dim": [{"size": "-1"}, {"size": "64"}]}}}}}, "modelTopology": {"node": [{"name": "StatefulPartitionedCall/yamnet_frames/tf_op_layer_feature_patches/frame/StridedSlice/feature_patches/frame/zeros_like", "op": "Const", "attr": {"dtype": {"type": "DT_INT32"}, "value": {"tensor": {"dtype": "DT_INT32", "tensorShape": {"dim": [{"size": "2"}]}}}}}, {"name": "StatefulPartitionedCall/yamnet_frames/tf_op_layer_feature_patches/frame/mul/feature_patches/frame/mul/y", "op": "Const", "attr": {"dtype": {"type": "DT_INT32"}, "value": {"tensor": {"dtype": "DT_INT32", "tensorShape": {}}}}}, {"name": "StatefulPartitionedCall/yamnet_frames/tf_op_layer_feature_patches/frame/concat/feature_patches/frame/concat/axis", "op": "Const", "attr": {"dtype": {"type": "DT_INT32"}, "value": {"tensor": {"dtype": "DT_INT32", "tensorShape": {}}}}}, {"name": "StatefulPartitionedCall/yamnet_frames/tf_op_layer_feature_patches/frame/StridedSlice/feature_patches/frame/ones_like", "op": "Const", "attr": {"dtype": {"type": "DT_INT32"}, "value": {"tensor": {"dtype": "DT_INT32", "tensorShape": {"dim": [{"size": "2"}]}}}}}, {"name": "StatefulPartitionedCall/yamnet_frames/tf_op_layer_feature_patches/frame/floordiv_3/feature_patches/frame/floordiv_3/y", "op": "Const", "attr": {"dtype": {"type": "DT_INT32"}, "value": {"tensor": {"dtype": "DT_INT32", "tensorShape": {}}}}}, {"name": "StatefulPartitionedCall/yamnet_frames/tf_op_layer_feature_patches/frame/concat_1/values_1/feature_patches/frame/concat_1/values_1/1", "op": "Const", "attr": {"dtype": {"type": "DT_INT32"}, "value": {"tensor": {"dtype": "DT_INT32", "tensorShape": {}}}}}, {"name": "StatefulPartitionedCall/yamnet_frames/tf_op_layer_feature_patches/frame/concat_1/feature_patches/frame/concat_1/axis", "op": "Const", "attr": {"value": {"tensor": {"dtype": "DT_INT32", "tensorShape": {}}}, "dtype": {"type": "DT_INT32"}}}, {"name": "StatefulPartitionedCall/yamnet_frames/tf_op_layer_feature_patches/frame/range_1/feature_patches/frame/range_1/start", "op": "Const", "attr": {"dtype": {"type": "DT_INT32"}, "value": {"tensor": {"dtype": "DT_INT32", "tensorShape": {}}}}}, {"name": "StatefulPartitionedCall/yamnet_frames/tf_op_layer_feature_patches/frame/range_1/feature_patches/frame/range_1/delta", "op": "Const", "attr": {"dtype": {"type": "DT_INT32"}, "value": {"tensor": {"dtype": "DT_INT32", "tensorShape": {}}}}}, {"name": "StatefulPartitionedCall/yamnet_frames/tf_op_layer_feature_patches/frame/Reshape_2/shape/feature_patches/frame/Reshape_2/shape/1", "op": "Const", "attr": {"dtype": {"type": "DT_INT32"}, "value": {"tensor": {"dtype": "DT_INT32", "tensorShape": {}}}}}, {"name": "StatefulPartitionedCall/yamnet_frames/tf_op_layer_feature_patches/frame/add_1/feature_patches/frame/Reshape_3", "op": "Const", "attr": {"dtype": {"type": "DT_INT32"}, "value": {"tensor": {"dtype": "DT_INT32", "tensorShape": {"dim": [{"size": "1"}, {"size": "2"}]}}}}}, {"name": "StatefulPartitionedCall/yamnet_frames/tf_op_layer_feature_patches/frame/GatherV2/feature_patches/frame/strided_slice", "op": "Const", "attr": {"value": {"tensor": {"dtype": "DT_INT32", "tensorShape": {}}}, "dtype": {"type": "DT_INT32"}}}, {"name": "StatefulPartitionedCall/yamnet_frames/tf_op_layer_feature_patches/frame/Maximum/feature_patches/frame/Maximum/x", "op": "Const", "attr": {"value": {"tensor": {"dtype": "DT_INT32", "tensorShape": {}}}, "dtype": {"type": "DT_INT32"}}}, {"name": "StatefulPartitionedCall/yamnet_frames/tf_op_layer_feature_patches/frame/add/feature_patches/frame/add/x", "op": "Const", "attr": {"value": {"tensor": {"dtype": "DT_INT32", "tensorShape": {}}}, "dtype": {"type": "DT_INT32"}}}, {"name": "StatefulPartitionedCall/yamnet_frames/tf_op_layer_feature_patches/frame/Reshape/feature_patches/frame/Reshape/shape", "op": "Const", "attr": {"value": {"tensor": {"dtype": "DT_INT32", "tensorShape": {"dim": [{}]}}}, "dtype": {"type": "DT_INT32"}}}, {"name": "StatefulPartitionedCall/yamnet_frames/tf_op_layer_feature_patches/frame/sub_2/feature_patches/frame/frame_length", "op": "Const", "attr": {"dtype": {"type": "DT_INT32"}, "value": {"tensor": {"dtype": "DT_INT32", "tensorShape": {}}}}}, {"name": "StatefulPartitionedCall/yamnet_frames/tf_op_layer_feature_patches/frame/floordiv/feature_patches/frame/frame_step", "op": "Const", "attr": {"dtype": {"type": "DT_INT32"}, "value": {"tensor": {"dtype": "DT_INT32", "tensorShape": {}}}}}, {"name": "StatefulPartitionedCall/yamnet_frames/tf_op_layer_feature_patches/frame/concat_2/values_1/feature_patches/frame/frame_length", "op": "Const", "attr": {"dtype": {"type": "DT_INT32"}, "value": {"tensor": {"dtype": "DT_INT32", "tensorShape": {}}}}}, {"name": "StatefulPartitionedCall/yamnet_frames/tf_op_layer_feature_patches/frame/split/feature_patches/frame/packed", "op": "Const", "attr": {"dtype": {"type": "DT_INT32"}, "value": {"tensor": {"dtype": "DT_INT32", "tensorShape": {"dim": [{"size": "3"}]}}}}}, {"name": "StatefulPartitionedCall/yamnet_frames/tf_op_layer_feature_patches/frame/split/feature_patches/frame/split/split_dim", "op": "Const", "attr": {"dtype": {"type": "DT_INT32"}, "value": {"tensor": {"dtype": "DT_INT32", "tensorShape": {}}}}}, {"name": "StatefulPartitionedCall/yamnet_frames/tf_op_layer_feature_patches/frame/concat_2/feature_patches/frame/concat_2/axis", "op": "Const", "attr": {"dtype": {"type": "DT_INT32"}, "value": {"tensor": {"dtype": "DT_INT32", "tensorShape": {}}}}}, {"name": "StatefulPartitionedCall/yamnet_frames/reshape/strided_slice/stack", "op": "Const", "attr": {"dtype": {"type": "DT_INT32"}, "value": {"tensor": {"dtype": "DT_INT32", "tensorShape": {"dim": [{"size": "1"}]}}}}}, {"name": "StatefulPartitionedCall/yamnet_frames/reshape/strided_slice/stack_1", "op": "Const", "attr": {"value": {"tensor": {"dtype": "DT_INT32", "tensorShape": {"dim": [{"size": "1"}]}}}, "dtype": {"type": "DT_INT32"}}}, {"name": "StatefulPartitionedCall/yamnet_frames/reshape/strided_slice/stack_2", "op": "Const", "attr": {"dtype": {"type": "DT_INT32"}, "value": {"tensor": {"dtype": "DT_INT32", "tensorShape": {"dim": [{"size": "1"}]}}}}}, {"name": "StatefulPartitionedCall/yamnet_frames/reshape/Reshape/shape/1", "op": "Const", "attr": {"value": {"tensor": {"dtype": "DT_INT32", "tensorShape": {}}}, "dtype": {"type": "DT_INT32"}}}, {"name": "StatefulPartitionedCall/yamnet_frames/reshape/Reshape/shape/2", "op": "Const", "attr": {"dtype": {"type": "DT_INT32"}, "value": {"tensor": {"dtype": "DT_INT32", "tensorShape": {}}}}}, {"name": "StatefulPartitionedCall/yamnet_frames/reshape/Reshape/shape/3", "op": "Const", "attr": {"value": {"tensor": {"dtype": "DT_INT32", "tensorShape": {}}}, "dtype": {"type": "DT_INT32"}}}, {"name": "StatefulPartitionedCall/yamnet_frames/global_average_pooling2d/Mean/reduction_indices", "op": "Const", "attr": {"value": {"tensor": {"dtype": "DT_INT32", "tensorShape": {"dim": [{"size": "2"}]}}}, "dtype": {"type": "DT_INT32"}}}, {"name": "dense_kernel", "op": "Const", "attr": {"value": {"tensor": {"dtype": "DT_FLOAT", "tensorShape": {"dim": [{"size": "1024"}, {"size": "521"}]}}}, "dtype": {"type": "DT_FLOAT"}}}, {"name": "dense_bias", "op": "Const", "attr": {"dtype": {"type": "DT_FLOAT"}, "value": {"tensor": {"dtype": "DT_FLOAT", "tensorShape": {"dim": [{"size": "521"}]}}}}}, {"name": "StatefulPartitionedCall/yamnet_frames/tf_op_layer_log_mel_features/stft/frame/StridedSlice/log_mel_features/stft/frame/zeros_like", "op": "Const", "attr": {"dtype": {"type": "DT_INT32"}, "value": {"tensor": {"dtype": "DT_INT32", "tensorShape": {"dim": [{"size": "1"}]}}}}}, {"name": "StatefulPartitionedCall/yamnet_frames/tf_op_layer_log_mel_features/stft/frame/mul/log_mel_features/stft/frame/mul/y", "op": "Const", "attr": {"dtype": {"type": "DT_INT32"}, "value": {"tensor": {"dtype": "DT_INT32", "tensorShape": {}}}}}, {"name": "StatefulPartitionedCall/yamnet_frames/tf_op_layer_log_mel_features/stft/frame/concat/log_mel_features/stft/frame/concat/axis", "op": "Const", "attr": {"value": {"tensor": {"dtype": "DT_INT32", "tensorShape": {}}}, "dtype": {"type": "DT_INT32"}}}, {"name": "StatefulPartitionedCall/yamnet_frames/tf_op_layer_log_mel_features/stft/frame/StridedSlice/log_mel_features/stft/frame/ones_like", "op": "Const", "attr": {"value": {"tensor": {"dtype": "DT_INT32", "tensorShape": {"dim": [{"size": "1"}]}}}, "dtype": {"type": "DT_INT32"}}}, {"name": "StatefulPartitionedCall/yamnet_frames/tf_op_layer_log_mel_features/stft/frame/floordiv_3/log_mel_features/stft/frame/floordiv_3/y", "op": "Const", "attr": {"dtype": {"type": "DT_INT32"}, "value": {"tensor": {"dtype": "DT_INT32", "tensorShape": {}}}}}, {"name": "StatefulPartitionedCall/yamnet_frames/tf_op_layer_log_mel_features/stft/frame/concat_1/values_1/log_mel_features/stft/frame/concat_1/values_1/1", "op": "Const", "attr": {"value": {"tensor": {"dtype": "DT_INT32", "tensorShape": {}}}, "dtype": {"type": "DT_INT32"}}}, {"name": "StatefulPartitionedCall/yamnet_frames/tf_op_layer_log_mel_features/stft/frame/concat_1/log_mel_features/stft/frame/concat_1/axis", "op": "Const", "attr": {"dtype": {"type": "DT_INT32"}, "value": {"tensor": {"dtype": "DT_INT32", "tensorShape": {}}}}}, {"name": "StatefulPartitionedCall/yamnet_frames/tf_op_layer_log_mel_features/stft/frame/range_1/log_mel_features/stft/frame/range_1/start", "op": "Const", "attr": {"dtype": {"type": "DT_INT32"}, "value": {"tensor": {"dtype": "DT_INT32", "tensorShape": {}}}}}, {"name": "StatefulPartitionedCall/yamnet_frames/tf_op_layer_log_mel_features/stft/frame/range_1/log_mel_features/stft/frame/range_1/delta", "op": "Const", "attr": {"value": {"tensor": {"dtype": "DT_INT32", "tensorShape": {}}}, "dtype": {"type": "DT_INT32"}}}, {"name": "StatefulPartitionedCall/yamnet_frames/tf_op_layer_log_mel_features/stft/frame/mul_1/log_mel_features/stft/frame/floordiv_2", "op": "Const", "attr": {"dtype": {"type": "DT_INT32"}, "value": {"tensor": {"dtype": "DT_INT32", "tensorShape": {}}}}}, {"name": "StatefulPartitionedCall/yamnet_frames/tf_op_layer_log_mel_features/stft/frame/Reshape_2/shape/log_mel_features/stft/frame/Reshape_2/shape/1", "op": "Const", "attr": {"value": {"tensor": {"dtype": "DT_INT32", "tensorShape": {}}}, "dtype": {"type": "DT_INT32"}}}, {"name": "StatefulPartitionedCall/yamnet_frames/tf_op_layer_log_mel_features/stft/frame/add_1/log_mel_features/stft/frame/Reshape_3", "op": "Const", "attr": {"dtype": {"type": "DT_INT32"}, "value": {"tensor": {"dtype": "DT_INT32", "tensorShape": {"dim": [{"size": "1"}, {"size": "5"}]}}}}}, {"name": "StatefulPartitionedCall/yamnet_frames/tf_op_layer_log_mel_features/stft/frame/GatherV2/log_mel_features/stft/frame/strided_slice", "op": "Const", "attr": {"value": {"tensor": {"dtype": "DT_INT32", "tensorShape": {}}}, "dtype": {"type": "DT_INT32"}}}, {"name": "StatefulPartitionedCall/yamnet_frames/tf_op_layer_log_mel_features/stft/frame/Maximum/log_mel_features/stft/frame/Maximum/x", "op": "Const", "attr": {"value": {"tensor": {"dtype": "DT_INT32", "tensorShape": {}}}, "dtype": {"type": "DT_INT32"}}}, {"name": "StatefulPartitionedCall/yamnet_frames/tf_op_layer_log_mel_features/stft/frame/add/log_mel_features/stft/frame/add/x", "op": "Const", "attr": {"dtype": {"type": "DT_INT32"}, "value": {"tensor": {"dtype": "DT_INT32", "tensorShape": {}}}}}, {"name": "StatefulPartitionedCall/yamnet_frames/tf_op_layer_log_mel_features/stft/frame/Reshape/log_mel_features/stft/frame/Reshape/shape", "op": "Const", "attr": {"dtype": {"type": "DT_INT32"}, "value": {"tensor": {"dtype": "DT_INT32", "tensorShape": {"dim": [{}]}}}}}, {"name": "StatefulPartitionedCall/yamnet_frames/tf_op_layer_log_mel_features/stft/frame/sub_2/log_mel_features/stft/frame_length", "op": "Const", "attr": {"value": {"tensor": {"dtype": "DT_INT32", "tensorShape": {}}}, "dtype": {"type": "DT_INT32"}}}, {"name": "StatefulPartitionedCall/yamnet_frames/tf_op_layer_log_mel_features/stft/frame/floordiv/log_mel_features/stft/frame_step", "op": "Const", "attr": {"value": {"tensor": {"dtype": "DT_INT32", "tensorShape": {}}}, "dtype": {"type": "DT_INT32"}}}, {"name": "StatefulPartitionedCall/yamnet_frames/tf_op_layer_log_mel_features/stft/frame/concat_2/values_1/log_mel_features/stft/frame_length", "op": "Const", "attr": {"value": {"tensor": {"dtype": "DT_INT32", "tensorShape": {}}}, "dtype": {"type": "DT_INT32"}}}, {"name": "StatefulPartitionedCall/yamnet_frames/tf_op_layer_log_mel_features/stft/frame/split/log_mel_features/stft/frame/packed", "op": "Const", "attr": {"value": {"tensor": {"dtype": "DT_INT32", "tensorShape": {"dim": [{"size": "3"}]}}}, "dtype": {"type": "DT_INT32"}}}, {"name": "StatefulPartitionedCall/yamnet_frames/tf_op_layer_log_mel_features/stft/frame/split/log_mel_features/stft/frame/split/split_dim", "op": "Const", "attr": {"value": {"tensor": {"dtype": "DT_INT32", "tensorShape": {}}}, "dtype": {"type": "DT_INT32"}}}, {"name": "StatefulPartitionedCall/yamnet_frames/tf_op_layer_log_mel_features/stft/frame/concat_2/log_mel_features/stft/frame/concat_2/axis", "op": "Const", "attr": {"dtype": {"type": "DT_INT32"}, "value": {"tensor": {"dtype": "DT_INT32", "tensorShape": {}}}}}, {"name": "StatefulPartitionedCall/yamnet_frames/tf_op_layer_log_mel_features/stft/mul/log_mel_features/stft/hann_window/sub_2", "op": "Const", "attr": {"dtype": {"type": "DT_FLOAT"}, "value": {"tensor": {"dtype": "DT_FLOAT", "tensorShape": {"dim": [{"size": "400"}]}}}}}, {"name": "StatefulPartitionedCall/yamnet_frames/tf_op_layer_log_mel_features/stft/rfft/Pad/log_mel_features/stft/rfft/Pad/paddings", "op": "Const", "attr": {"value": {"tensor": {"dtype": "DT_INT32", "tensorShape": {"dim": [{"size": "2"}, {"size": "2"}]}}}, "dtype": {"type": "DT_INT32"}}}, {"name": "StatefulPartitionedCall/yamnet_frames/tf_op_layer_log_mel_features/stft/rfft/log_mel_features/stft/rfft/fft_length", "op": "Const", "attr": {"dtype": {"type": "DT_INT32"}, "value": {"tensor": {"dtype": "DT_INT32", "tensorShape": {"dim": [{"size": "1"}]}}}}}, {"name": "StatefulPartitionedCall/yamnet_frames/tf_op_layer_log_mel_features/MatMul/log_mel_features/linear_to_mel_weight_matrix", "op": "Const", "attr": {"dtype": {"type": "DT_FLOAT"}, "value": {"tensor": {"dtype": "DT_FLOAT", "tensorShape": {"dim": [{"size": "257"}, {"size": "64"}]}}}}}, {"name": "StatefulPartitionedCall/yamnet_frames/tf_op_layer_log_mel_features/add/log_mel_features/add/y", "op": "Const", "attr": {"dtype": {"type": "DT_FLOAT"}, "value": {"tensor": {"dtype": "DT_FLOAT", "tensorShape": {}}}}}, {"name": "input_1", "op": "Placeholder", "attr": {"shape": {"shape": {"dim": [{"size": "1"}, {"size": "-1"}]}}, "dtype": {"type": "DT_FLOAT"}}}, {"name": "StatefulPartitionedCall/yamnet_frames/layer1/conv/Conv2D_weights", "op": "Const", "attr": {"dtype": {"type": "DT_FLOAT"}, "value": {"tensor": {"dtype": "DT_FLOAT", "tensorShape": {"dim": [{"size": "3"}, {"size": "3"}, {"size": "1"}, {"size": "32"}]}}}}}, {"name": "StatefulPartitionedCall/yamnet_frames/layer1/conv/Conv2D_bn_offset", "op": "Const", "attr": {"dtype": {"type": "DT_FLOAT"}, "value": {"tensor": {"dtype": "DT_FLOAT", "tensorShape": {"dim": [{"size": "32"}]}}}}}, {"name": "StatefulPartitionedCall/yamnet_frames/layer12/pointwise_conv/Conv2D_bn_offset", "op": "Const", "attr": {"value": {"tensor": {"dtype": "DT_FLOAT", "tensorShape": {"dim": [{"size": "512"}]}}}, "dtype": {"type": "DT_FLOAT"}}}, {"name": "StatefulPartitionedCall/yamnet_frames/layer2/depthwise_conv/depthwise_weights", "op": "Const", "attr": {"dtype": {"type": "DT_FLOAT"}, "value": {"tensor": {"dtype": "DT_FLOAT", "tensorShape": {"dim": [{"size": "3"}, {"size": "3"}, {"size": "32"}, {"size": "1"}]}}}}}, {"name": "StatefulPartitionedCall/yamnet_frames/layer2/depthwise_conv/depthwise_bn_offset", "op": "Const", "attr": {"value": {"tensor": {"dtype": "DT_FLOAT", "tensorShape": {"dim": [{"size": "32"}]}}}, "dtype": {"type": "DT_FLOAT"}}}, {"name": "StatefulPartitionedCall/yamnet_frames/layer2/pointwise_conv/Conv2D_weights", "op": "Const", "attr": {"dtype": {"type": "DT_FLOAT"}, "value": {"tensor": {"dtype": "DT_FLOAT", "tensorShape": {"dim": [{"size": "1"}, {"size": "1"}, {"size": "32"}, {"size": "64"}]}}}}}, {"name": "StatefulPartitionedCall/yamnet_frames/layer2/pointwise_conv/Conv2D_bn_offset", "op": "Const", "attr": {"dtype": {"type": "DT_FLOAT"}, "value": {"tensor": {"dtype": "DT_FLOAT", "tensorShape": {"dim": [{"size": "64"}]}}}}}, {"name": "StatefulPartitionedCall/yamnet_frames/layer3/depthwise_conv/depthwise_weights", "op": "Const", "attr": {"value": {"tensor": {"dtype": "DT_FLOAT", "tensorShape": {"dim": [{"size": "3"}, {"size": "3"}, {"size": "64"}, {"size": "1"}]}}}, "dtype": {"type": "DT_FLOAT"}}}, {"name": "StatefulPartitionedCall/yamnet_frames/layer3/depthwise_conv/depthwise_bn_offset", "op": "Const", "attr": {"value": {"tensor": {"dtype": "DT_FLOAT", "tensorShape": {"dim": [{"size": "64"}]}}}, "dtype": {"type": "DT_FLOAT"}}}, {"name": "StatefulPartitionedCall/yamnet_frames/layer3/pointwise_conv/Conv2D_weights", "op": "Const", "attr": {"value": {"tensor": {"dtype": "DT_FLOAT", "tensorShape": {"dim": [{"size": "1"}, {"size": "1"}, {"size": "64"}, {"size": "128"}]}}}, "dtype": {"type": "DT_FLOAT"}}}, {"name": "StatefulPartitionedCall/yamnet_frames/layer13/depthwise_conv/depthwise_weights", "op": "Const", "attr": {"dtype": {"type": "DT_FLOAT"}, "value": {"tensor": {"dtype": "DT_FLOAT", "tensorShape": {"dim": [{"size": "3"}, {"size": "3"}, {"size": "512"}, {"size": "1"}]}}}}}, {"name": "StatefulPartitionedCall/yamnet_frames/layer3/pointwise_conv/Conv2D_bn_offset", "op": "Const", "attr": {"value": {"tensor": {"dtype": "DT_FLOAT", "tensorShape": {"dim": [{"size": "128"}]}}}, "dtype": {"type": "DT_FLOAT"}}}, {"name": "StatefulPartitionedCall/yamnet_frames/layer4/depthwise_conv/depthwise_weights", "op": "Const", "attr": {"dtype": {"type": "DT_FLOAT"}, "value": {"tensor": {"dtype": "DT_FLOAT", "tensorShape": {"dim": [{"size": "3"}, {"size": "3"}, {"size": "128"}, {"size": "1"}]}}}}}, {"name": "StatefulPartitionedCall/yamnet_frames/layer4/depthwise_conv/depthwise_bn_offset", "op": "Const", "attr": {"value": {"tensor": {"dtype": "DT_FLOAT", "tensorShape": {"dim": [{"size": "128"}]}}}, "dtype": {"type": "DT_FLOAT"}}}, {"name": "StatefulPartitionedCall/yamnet_frames/layer4/pointwise_conv/Conv2D_weights", "op": "Const", "attr": {"dtype": {"type": "DT_FLOAT"}, "value": {"tensor": {"dtype": "DT_FLOAT", "tensorShape": {"dim": [{"size": "1"}, {"size": "1"}, {"size": "128"}, {"size": "128"}]}}}}}, {"name": "StatefulPartitionedCall/yamnet_frames/layer13/depthwise_conv/depthwise_bn_offset", "op": "Const", "attr": {"dtype": {"type": "DT_FLOAT"}, "value": {"tensor": {"dtype": "DT_FLOAT", "tensorShape": {"dim": [{"size": "512"}]}}}}}, {"name": "StatefulPartitionedCall/yamnet_frames/layer4/pointwise_conv/Conv2D_bn_offset", "op": "Const", "attr": {"value": {"tensor": {"dtype": "DT_FLOAT", "tensorShape": {"dim": [{"size": "128"}]}}}, "dtype": {"type": "DT_FLOAT"}}}, {"name": "StatefulPartitionedCall/yamnet_frames/layer5/depthwise_conv/depthwise_weights", "op": "Const", "attr": {"value": {"tensor": {"dtype": "DT_FLOAT", "tensorShape": {"dim": [{"size": "3"}, {"size": "3"}, {"size": "128"}, {"size": "1"}]}}}, "dtype": {"type": "DT_FLOAT"}}}, {"name": "StatefulPartitionedCall/yamnet_frames/layer5/depthwise_conv/depthwise_bn_offset", "op": "Const", "attr": {"dtype": {"type": "DT_FLOAT"}, "value": {"tensor": {"dtype": "DT_FLOAT", "tensorShape": {"dim": [{"size": "128"}]}}}}}, {"name": "StatefulPartitionedCall/yamnet_frames/layer5/pointwise_conv/Conv2D_weights", "op": "Const", "attr": {"dtype": {"type": "DT_FLOAT"}, "value": {"tensor": {"dtype": "DT_FLOAT", "tensorShape": {"dim": [{"size": "1"}, {"size": "1"}, {"size": "128"}, {"size": "256"}]}}}}}, {"name": "StatefulPartitionedCall/yamnet_frames/layer5/pointwise_conv/Conv2D_bn_offset", "op": "Const", "attr": {"dtype": {"type": "DT_FLOAT"}, "value": {"tensor": {"dtype": "DT_FLOAT", "tensorShape": {"dim": [{"size": "256"}]}}}}}, {"name": "StatefulPartitionedCall/yamnet_frames/layer13/pointwise_conv/Conv2D_weights", "op": "Const", "attr": {"value": {"tensor": {"dtype": "DT_FLOAT", "tensorShape": {"dim": [{"size": "1"}, {"size": "1"}, {"size": "512"}, {"size": "1024"}]}}}, "dtype": {"type": "DT_FLOAT"}}}, {"name": "StatefulPartitionedCall/yamnet_frames/layer6/depthwise_conv/depthwise_weights", "op": "Const", "attr": {"dtype": {"type": "DT_FLOAT"}, "value": {"tensor": {"dtype": "DT_FLOAT", "tensorShape": {"dim": [{"size": "3"}, {"size": "3"}, {"size": "256"}, {"size": "1"}]}}}}}, {"name": "StatefulPartitionedCall/yamnet_frames/layer6/depthwise_conv/depthwise_bn_offset", "op": "Const", "attr": {"dtype": {"type": "DT_FLOAT"}, "value": {"tensor": {"dtype": "DT_FLOAT", "tensorShape": {"dim": [{"size": "256"}]}}}}}, {"name": "StatefulPartitionedCall/yamnet_frames/layer6/pointwise_conv/Conv2D_weights", "op": "Const", "attr": {"value": {"tensor": {"dtype": "DT_FLOAT", "tensorShape": {"dim": [{"size": "1"}, {"size": "1"}, {"size": "256"}, {"size": "256"}]}}}, "dtype": {"type": "DT_FLOAT"}}}, {"name": "StatefulPartitionedCall/yamnet_frames/layer6/pointwise_conv/Conv2D_bn_offset", "op": "Const", "attr": {"dtype": {"type": "DT_FLOAT"}, "value": {"tensor": {"dtype": "DT_FLOAT", "tensorShape": {"dim": [{"size": "256"}]}}}}}, {"name": "StatefulPartitionedCall/yamnet_frames/layer13/pointwise_conv/Conv2D_bn_offset", "op": "Const", "attr": {"dtype": {"type": "DT_FLOAT"}, "value": {"tensor": {"dtype": "DT_FLOAT", "tensorShape": {"dim": [{"size": "1024"}]}}}}}, {"name": "StatefulPartitionedCall/yamnet_frames/layer7/depthwise_conv/depthwise_weights", "op": "Const", "attr": {"value": {"tensor": {"dtype": "DT_FLOAT", "tensorShape": {"dim": [{"size": "3"}, {"size": "3"}, {"size": "256"}, {"size": "1"}]}}}, "dtype": {"type": "DT_FLOAT"}}}, {"name": "StatefulPartitionedCall/yamnet_frames/layer7/depthwise_conv/depthwise_bn_offset", "op": "Const", "attr": {"value": {"tensor": {"dtype": "DT_FLOAT", "tensorShape": {"dim": [{"size": "256"}]}}}, "dtype": {"type": "DT_FLOAT"}}}, {"name": "StatefulPartitionedCall/yamnet_frames/layer7/pointwise_conv/Conv2D_weights", "op": "Const", "attr": {"value": {"tensor": {"dtype": "DT_FLOAT", "tensorShape": {"dim": [{"size": "1"}, {"size": "1"}, {"size": "256"}, {"size": "512"}]}}}, "dtype": {"type": "DT_FLOAT"}}}, {"name": "StatefulPartitionedCall/yamnet_frames/layer7/pointwise_conv/Conv2D_bn_offset", "op": "Const", "attr": {"dtype": {"type": "DT_FLOAT"}, "value": {"tensor": {"dtype": "DT_FLOAT", "tensorShape": {"dim": [{"size": "512"}]}}}}}, {"name": "StatefulPartitionedCall/yamnet_frames/layer8/depthwise_conv/depthwise_weights", "op": "Const", "attr": {"value": {"tensor": {"dtype": "DT_FLOAT", "tensorShape": {"dim": [{"size": "3"}, {"size": "3"}, {"size": "512"}, {"size": "1"}]}}}, "dtype": {"type": "DT_FLOAT"}}}, {"name": "StatefulPartitionedCall/yamnet_frames/layer8/depthwise_conv/depthwise_bn_offset", "op": "Const", "attr": {"dtype": {"type": "DT_FLOAT"}, "value": {"tensor": {"dtype": "DT_FLOAT", "tensorShape": {"dim": [{"size": "512"}]}}}}}, {"name": "StatefulPartitionedCall/yamnet_frames/layer8/pointwise_conv/Conv2D_weights", "op": "Const", "attr": {"dtype": {"type": "DT_FLOAT"}, "value": {"tensor": {"dtype": "DT_FLOAT", "tensorShape": {"dim": [{"size": "1"}, {"size": "1"}, {"size": "512"}, {"size": "512"}]}}}}}, {"name": "StatefulPartitionedCall/yamnet_frames/layer14/depthwise_conv/depthwise_weights", "op": "Const", "attr": {"value": {"tensor": {"dtype": "DT_FLOAT", "tensorShape": {"dim": [{"size": "3"}, {"size": "3"}, {"size": "1024"}, {"size": "1"}]}}}, "dtype": {"type": "DT_FLOAT"}}}, {"name": "StatefulPartitionedCall/yamnet_frames/layer8/pointwise_conv/Conv2D_bn_offset", "op": "Const", "attr": {"value": {"tensor": {"dtype": "DT_FLOAT", "tensorShape": {"dim": [{"size": "512"}]}}}, "dtype": {"type": "DT_FLOAT"}}}, {"name": "StatefulPartitionedCall/yamnet_frames/layer9/depthwise_conv/depthwise_weights", "op": "Const", "attr": {"value": {"tensor": {"dtype": "DT_FLOAT", "tensorShape": {"dim": [{"size": "3"}, {"size": "3"}, {"size": "512"}, {"size": "1"}]}}}, "dtype": {"type": "DT_FLOAT"}}}, {"name": "StatefulPartitionedCall/yamnet_frames/layer9/depthwise_conv/depthwise_bn_offset", "op": "Const", "attr": {"dtype": {"type": "DT_FLOAT"}, "value": {"tensor": {"dtype": "DT_FLOAT", "tensorShape": {"dim": [{"size": "512"}]}}}}}, {"name": "StatefulPartitionedCall/yamnet_frames/layer9/pointwise_conv/Conv2D_weights", "op": "Const", "attr": {"dtype": {"type": "DT_FLOAT"}, "value": {"tensor": {"dtype": "DT_FLOAT", "tensorShape": {"dim": [{"size": "1"}, {"size": "1"}, {"size": "512"}, {"size": "512"}]}}}}}, {"name": "StatefulPartitionedCall/yamnet_frames/layer14/depthwise_conv/depthwise_bn_offset", "op": "Const", "attr": {"value": {"tensor": {"dtype": "DT_FLOAT", "tensorShape": {"dim": [{"size": "1024"}]}}}, "dtype": {"type": "DT_FLOAT"}}}, {"name": "StatefulPartitionedCall/yamnet_frames/layer9/pointwise_conv/Conv2D_bn_offset", "op": "Const", "attr": {"value": {"tensor": {"dtype": "DT_FLOAT", "tensorShape": {"dim": [{"size": "512"}]}}}, "dtype": {"type": "DT_FLOAT"}}}, {"name": "StatefulPartitionedCall/yamnet_frames/layer10/depthwise_conv/depthwise_weights", "op": "Const", "attr": {"dtype": {"type": "DT_FLOAT"}, "value": {"tensor": {"dtype": "DT_FLOAT", "tensorShape": {"dim": [{"size": "3"}, {"size": "3"}, {"size": "512"}, {"size": "1"}]}}}}}, {"name": "StatefulPartitionedCall/yamnet_frames/layer10/depthwise_conv/depthwise_bn_offset", "op": "Const", "attr": {"dtype": {"type": "DT_FLOAT"}, "value": {"tensor": {"dtype": "DT_FLOAT", "tensorShape": {"dim": [{"size": "512"}]}}}}}, {"name": "StatefulPartitionedCall/yamnet_frames/layer10/pointwise_conv/Conv2D_weights", "op": "Const", "attr": {"value": {"tensor": {"dtype": "DT_FLOAT", "tensorShape": {"dim": [{"size": "1"}, {"size": "1"}, {"size": "512"}, {"size": "512"}]}}}, "dtype": {"type": "DT_FLOAT"}}}, {"name": "StatefulPartitionedCall/yamnet_frames/layer10/pointwise_conv/Conv2D_bn_offset", "op": "Const", "attr": {"value": {"tensor": {"dtype": "DT_FLOAT", "tensorShape": {"dim": [{"size": "512"}]}}}, "dtype": {"type": "DT_FLOAT"}}}, {"name": "StatefulPartitionedCall/yamnet_frames/layer14/pointwise_conv/Conv2D_weights", "op": "Const", "attr": {"dtype": {"type": "DT_FLOAT"}, "value": {"tensor": {"dtype": "DT_FLOAT", "tensorShape": {"dim": [{"size": "1"}, {"size": "1"}, {"size": "1024"}, {"size": "1024"}]}}}}}, {"name": "StatefulPartitionedCall/yamnet_frames/layer11/depthwise_conv/depthwise_weights", "op": "Const", "attr": {"value": {"tensor": {"dtype": "DT_FLOAT", "tensorShape": {"dim": [{"size": "3"}, {"size": "3"}, {"size": "512"}, {"size": "1"}]}}}, "dtype": {"type": "DT_FLOAT"}}}, {"name": "StatefulPartitionedCall/yamnet_frames/layer11/depthwise_conv/depthwise_bn_offset", "op": "Const", "attr": {"dtype": {"type": "DT_FLOAT"}, "value": {"tensor": {"dtype": "DT_FLOAT", "tensorShape": {"dim": [{"size": "512"}]}}}}}, {"name": "StatefulPartitionedCall/yamnet_frames/layer11/pointwise_conv/Conv2D_weights", "op": "Const", "attr": {"dtype": {"type": "DT_FLOAT"}, "value": {"tensor": {"dtype": "DT_FLOAT", "tensorShape": {"dim": [{"size": "1"}, {"size": "1"}, {"size": "512"}, {"size": "512"}]}}}}}, {"name": "StatefulPartitionedCall/yamnet_frames/layer11/pointwise_conv/Conv2D_bn_offset", "op": "Const", "attr": {"value": {"tensor": {"dtype": "DT_FLOAT", "tensorShape": {"dim": [{"size": "512"}]}}}, "dtype": {"type": "DT_FLOAT"}}}, {"name": "StatefulPartitionedCall/yamnet_frames/layer14/pointwise_conv/Conv2D_bn_offset", "op": "Const", "attr": {"dtype": {"type": "DT_FLOAT"}, "value": {"tensor": {"dtype": "DT_FLOAT", "tensorShape": {"dim": [{"size": "1024"}]}}}}}, {"name": "StatefulPartitionedCall/yamnet_frames/layer12/depthwise_conv/depthwise_weights", "op": "Const", "attr": {"dtype": {"type": "DT_FLOAT"}, "value": {"tensor": {"dtype": "DT_FLOAT", "tensorShape": {"dim": [{"size": "3"}, {"size": "3"}, {"size": "512"}, {"size": "1"}]}}}}}, {"name": "StatefulPartitionedCall/yamnet_frames/layer12/depthwise_conv/depthwise_bn_offset", "op": "Const", "attr": {"dtype": {"type": "DT_FLOAT"}, "value": {"tensor": {"dtype": "DT_FLOAT", "tensorShape": {"dim": [{"size": "512"}]}}}}}, {"name": "StatefulPartitionedCall/yamnet_frames/layer12/pointwise_conv/Conv2D_weights", "op": "Const", "attr": {"value": {"tensor": {"dtype": "DT_FLOAT", "tensorShape": {"dim": [{"size": "1"}, {"size": "1"}, {"size": "512"}, {"size": "512"}]}}}, "dtype": {"type": "DT_FLOAT"}}}, {"name": "StatefulPartitionedCall/yamnet_frames/tf_op_layer_Squeeze/Squeeze", "op": "Squeeze", "input": ["input_1"], "attr": {"squeeze_dims": {"list": {"i": ["0"]}}, "T": {"type": "DT_FLOAT"}, "_cloned": {"b": true}}}, {"name": "StatefulPartitionedCall/yamnet_frames/tf_op_layer_log_mel_features/stft/frame/Shape/log_mel_features/stft/frame/Shape", "op": "Shape", "input": ["StatefulPartitionedCall/yamnet_frames/tf_op_layer_Squeeze/Squeeze"], "attr": {"out_type": {"type": "DT_INT32"}, "T": {"type": "DT_FLOAT"}, "_cloned": {"b": true}}}, {"name": "StatefulPartitionedCall/yamnet_frames/tf_op_layer_log_mel_features/stft/frame/split/log_mel_features/stft/frame/split", "op": "SplitV", "input": ["StatefulPartitionedCall/yamnet_frames/tf_op_layer_log_mel_features/stft/frame/Shape/log_mel_features/stft/frame/Shape", "StatefulPartitionedCall/yamnet_frames/tf_op_layer_log_mel_features/stft/frame/split/log_mel_features/stft/frame/packed", "StatefulPartitionedCall/yamnet_frames/tf_op_layer_log_mel_features/stft/frame/split/log_mel_features/stft/frame/split/split_dim"], "attr": {"T": {"type": "DT_INT32"}, "_cloned": {"b": true}, "num_split": {"i": "3"}, "Tlen": {"type": "DT_INT32"}}}, {"name": "StatefulPartitionedCall/yamnet_frames/tf_op_layer_log_mel_features/stft/frame/Reshape/log_mel_features/stft/frame/Reshape", "op": "Reshape", "input": ["StatefulPartitionedCall/yamnet_frames/tf_op_layer_log_mel_features/stft/frame/split/log_mel_features/stft/frame/split:1", "StatefulPartitionedCall/yamnet_frames/tf_op_layer_log_mel_features/stft/frame/Reshape/log_mel_features/stft/frame/Reshape/shape"], "attr": {"_cloned": {"b": true}, "T": {"type": "DT_INT32"}, "Tshape": {"type": "DT_INT32"}}}, {"name": "StatefulPartitionedCall/yamnet_frames/tf_op_layer_log_mel_features/stft/frame/floordiv_3/log_mel_features/stft/frame/floordiv_3", "op": "FloorDiv", "input": ["StatefulPartitionedCall/yamnet_frames/tf_op_layer_log_mel_features/stft/frame/Reshape/log_mel_features/stft/frame/Reshape", "StatefulPartitionedCall/yamnet_frames/tf_op_layer_log_mel_features/stft/frame/floordiv_3/log_mel_features/stft/frame/floordiv_3/y"], "attr": {"_cloned": {"b": true}, "T": {"type": "DT_INT32"}}}, {"name": "StatefulPartitionedCall/yamnet_frames/tf_op_layer_log_mel_features/stft/frame/sub_2/log_mel_features/stft/frame/sub_2", "op": "Sub", "input": ["StatefulPartitionedCall/yamnet_frames/tf_op_layer_log_mel_features/stft/frame/Reshape/log_mel_features/stft/frame/Reshape", "StatefulPartitionedCall/yamnet_frames/tf_op_layer_log_mel_features/stft/frame/sub_2/log_mel_features/stft/frame_length"], "attr": {"_cloned": {"b": true}, "T": {"type": "DT_INT32"}}}, {"name": "StatefulPartitionedCall/yamnet_frames/tf_op_layer_log_mel_features/stft/frame/mul/log_mel_features/stft/frame/mul", "op": "Mul", "input": ["StatefulPartitionedCall/yamnet_frames/tf_op_layer_log_mel_features/stft/frame/floordiv_3/log_mel_features/stft/frame/floordiv_3", "StatefulPartitionedCall/yamnet_frames/tf_op_layer_log_mel_features/stft/frame/mul/log_mel_features/stft/frame/mul/y"], "attr": {"T": {"type": "DT_INT32"}, "_cloned": {"b": true}}}, {"name": "StatefulPartitionedCall/yamnet_frames/tf_op_layer_log_mel_features/stft/frame/concat_1/values_1/log_mel_features/stft/frame/concat_1/values_1", "op": "Pack", "input": ["StatefulPartitionedCall/yamnet_frames/tf_op_layer_log_mel_features/stft/frame/floordiv_3/log_mel_features/stft/frame/floordiv_3", "StatefulPartitionedCall/yamnet_frames/tf_op_layer_log_mel_features/stft/frame/concat_1/values_1/log_mel_features/stft/frame/concat_1/values_1/1"], "attr": {"axis": {"i": "0"}, "N": {"i": "2"}, "T": {"type": "DT_INT32"}, "_cloned": {"b": true}}}, {"name": "StatefulPartitionedCall/yamnet_frames/tf_op_layer_log_mel_features/stft/frame/floordiv/log_mel_features/stft/frame/floordiv", "op": "FloorDiv", "input": ["StatefulPartitionedCall/yamnet_frames/tf_op_layer_log_mel_features/stft/frame/sub_2/log_mel_features/stft/frame/sub_2", "StatefulPartitionedCall/yamnet_frames/tf_op_layer_log_mel_features/stft/frame/floordiv/log_mel_features/stft/frame_step"], "attr": {"_cloned": {"b": true}, "T": {"type": "DT_INT32"}}}, {"name": "ConstantFolding/StatefulPartitionedCall/yamnet_frames/tf_op_layer_log_mel_features/stft/frame/concat/values_1/log_mel_features/stft/frame/concat/values_1_const_axis", "op": "Const", "input": ["^StatefulPartitionedCall/yamnet_frames/tf_op_layer_log_mel_features/stft/frame/mul/log_mel_features/stft/frame/mul"], "attr": {"dtype": {"type": "DT_INT32"}, "value": {"tensor": {"dtype": "DT_INT32", "tensorShape": {}}}}}, {"name": "StatefulPartitionedCall/yamnet_frames/tf_op_layer_log_mel_features/stft/frame/concat_1/log_mel_features/stft/frame/concat_1", "op": "ConcatV2", "input": ["StatefulPartitionedCall/yamnet_frames/tf_op_layer_log_mel_features/stft/frame/split/log_mel_features/stft/frame/split", "StatefulPartitionedCall/yamnet_frames/tf_op_layer_log_mel_features/stft/frame/concat_1/values_1/log_mel_features/stft/frame/concat_1/values_1", "StatefulPartitionedCall/yamnet_frames/tf_op_layer_log_mel_features/stft/frame/split/log_mel_features/stft/frame/split:2", "StatefulPartitionedCall/yamnet_frames/tf_op_layer_log_mel_features/stft/frame/concat_1/log_mel_features/stft/frame/concat_1/axis"], "attr": {"T": {"type": "DT_INT32"}, "N": {"i": "3"}, "Tidx": {"type": "DT_INT32"}, "_cloned": {"b": true}}}, {"name": "StatefulPartitionedCall/yamnet_frames/tf_op_layer_log_mel_features/stft/frame/add/log_mel_features/stft/frame/add", "op": "AddV2", "input": ["StatefulPartitionedCall/yamnet_frames/tf_op_layer_log_mel_features/stft/frame/add/log_mel_features/stft/frame/add/x", "StatefulPartitionedCall/yamnet_frames/tf_op_layer_log_mel_features/stft/frame/floordiv/log_mel_features/stft/frame/floordiv"], "attr": {"T": {"type": "DT_INT32"}, "_cloned": {"b": true}}}, {"name": "StatefulPartitionedCall/yamnet_frames/tf_op_layer_log_mel_features/stft/frame/concat/values_1/log_mel_features/stft/frame/concat/values_1", "op": "ExpandDims", "input": ["StatefulPartitionedCall/yamnet_frames/tf_op_layer_log_mel_features/stft/frame/mul/log_mel_features/stft/frame/mul", "ConstantFolding/StatefulPartitionedCall/yamnet_frames/tf_op_layer_log_mel_features/stft/frame/concat/values_1/log_mel_features/stft/frame/concat/values_1_const_axis"], "attr": {"_cloned": {"b": true}, "Tdim": {"type": "DT_INT32"}, "T": {"type": "DT_INT32"}}}, {"name": "StatefulPartitionedCall/yamnet_frames/tf_op_layer_log_mel_features/stft/frame/Maximum/log_mel_features/stft/frame/Maximum", "op": "Maximum", "input": ["StatefulPartitionedCall/yamnet_frames/tf_op_layer_log_mel_features/stft/frame/Maximum/log_mel_features/stft/frame/Maximum/x", "StatefulPartitionedCall/yamnet_frames/tf_op_layer_log_mel_features/stft/frame/add/log_mel_features/stft/frame/add"], "attr": {"_cloned": {"b": true}, "T": {"type": "DT_INT32"}}}, {"name": "StatefulPartitionedCall/yamnet_frames/tf_op_layer_log_mel_features/stft/frame/concat/log_mel_features/stft/frame/concat", "op": "ConcatV2", "input": ["StatefulPartitionedCall/yamnet_frames/tf_op_layer_log_mel_features/stft/frame/split/log_mel_features/stft/frame/split", "StatefulPartitionedCall/yamnet_frames/tf_op_layer_log_mel_features/stft/frame/concat/values_1/log_mel_features/stft/frame/concat/values_1", "StatefulPartitionedCall/yamnet_frames/tf_op_layer_log_mel_features/stft/frame/split/log_mel_features/stft/frame/split:2", "StatefulPartitionedCall/yamnet_frames/tf_op_layer_log_mel_features/stft/frame/concat/log_mel_features/stft/frame/concat/axis"], "attr": {"N": {"i": "3"}, "Tidx": {"type": "DT_INT32"}, "_cloned": {"b": true}, "T": {"type": "DT_INT32"}}}, {"name": "StatefulPartitionedCall/yamnet_frames/tf_op_layer_log_mel_features/stft/frame/range_1/log_mel_features/stft/frame/range_1", "op": "Range", "input": ["StatefulPartitionedCall/yamnet_frames/tf_op_layer_log_mel_features/stft/frame/range_1/log_mel_features/stft/frame/range_1/start", "StatefulPartitionedCall/yamnet_frames/tf_op_layer_log_mel_features/stft/frame/Maximum/log_mel_features/stft/frame/Maximum", "StatefulPartitionedCall/yamnet_frames/tf_op_layer_log_mel_features/stft/frame/range_1/log_mel_features/stft/frame/range_1/delta"], "attr": {"Tidx": {"type": "DT_INT32"}, "_cloned": {"b": true}}}, {"name": "StatefulPartitionedCall/yamnet_frames/tf_op_layer_log_mel_features/stft/frame/Reshape_2/shape/log_mel_features/stft/frame/Reshape_2/shape", "op": "Pack", "input": ["StatefulPartitionedCall/yamnet_frames/tf_op_layer_log_mel_features/stft/frame/Maximum/log_mel_features/stft/frame/Maximum", "StatefulPartitionedCall/yamnet_frames/tf_op_layer_log_mel_features/stft/frame/Reshape_2/shape/log_mel_features/stft/frame/Reshape_2/shape/1"], "attr": {"_cloned": {"b": true}, "T": {"type": "DT_INT32"}, "N": {"i": "2"}, "axis": {"i": "0"}}}, {"name": "StatefulPartitionedCall/yamnet_frames/tf_op_layer_log_mel_features/stft/frame/concat_2/values_1/log_mel_features/stft/frame/concat_2/values_1", "op": "Pack", "input": ["StatefulPartitionedCall/yamnet_frames/tf_op_layer_log_mel_features/stft/frame/Maximum/log_mel_features/stft/frame/Maximum", "StatefulPartitionedCall/yamnet_frames/tf_op_layer_log_mel_features/stft/frame/concat_2/values_1/log_mel_features/stft/frame_length"], "attr": {"axis": {"i": "0"}, "N": {"i": "2"}, "T": {"type": "DT_INT32"}, "_cloned": {"b": true}}}, {"name": "StatefulPartitionedCall/yamnet_frames/tf_op_layer_log_mel_features/stft/frame/StridedSlice/log_mel_features/stft/frame/StridedSlice", "op": "StridedSlice", "input": ["StatefulPartitionedCall/yamnet_frames/tf_op_layer_Squeeze/Squeeze", "StatefulPartitionedCall/yamnet_frames/tf_op_layer_log_mel_features/stft/frame/StridedSlice/log_mel_features/stft/frame/zeros_like", "StatefulPartitionedCall/yamnet_frames/tf_op_layer_log_mel_features/stft/frame/concat/log_mel_features/stft/frame/concat", "StatefulPartitionedCall/yamnet_frames/tf_op_layer_log_mel_features/stft/frame/StridedSlice/log_mel_features/stft/frame/ones_like"], "attr": {"_cloned": {"b": true}, "end_mask": {"i": "0"}, "begin_mask": {"i": "0"}, "T": {"type": "DT_FLOAT"}, "new_axis_mask": {"i": "0"}, "ellipsis_mask": {"i": "0"}, "shrink_axis_mask": {"i": "0"}, "Index": {"type": "DT_INT32"}}}, {"name": "StatefulPartitionedCall/yamnet_frames/tf_op_layer_log_mel_features/stft/frame/mul_1/log_mel_features/stft/frame/mul_1", "op": "Mul", "input": ["StatefulPartitionedCall/yamnet_frames/tf_op_layer_log_mel_features/stft/frame/range_1/log_mel_features/stft/frame/range_1", "StatefulPartitionedCall/yamnet_frames/tf_op_layer_log_mel_features/stft/frame/mul_1/log_mel_features/stft/frame/floordiv_2"], "attr": {"T": {"type": "DT_INT32"}, "_cloned": {"b": true}}}, {"name": "StatefulPartitionedCall/yamnet_frames/tf_op_layer_log_mel_features/stft/frame/concat_2/log_mel_features/stft/frame/concat_2", "op": "ConcatV2", "input": ["StatefulPartitionedCall/yamnet_frames/tf_op_layer_log_mel_features/stft/frame/split/log_mel_features/stft/frame/split", "StatefulPartitionedCall/yamnet_frames/tf_op_layer_log_mel_features/stft/frame/concat_2/values_1/log_mel_features/stft/frame/concat_2/values_1", "StatefulPartitionedCall/yamnet_frames/tf_op_layer_log_mel_features/stft/frame/split/log_mel_features/stft/frame/split:2", "StatefulPartitionedCall/yamnet_frames/tf_op_layer_log_mel_features/stft/frame/concat_2/log_mel_features/stft/frame/concat_2/axis"], "attr": {"_cloned": {"b": true}, "T": {"type": "DT_INT32"}, "N": {"i": "3"}, "Tidx": {"type": "DT_INT32"}}}, {"name": "StatefulPartitionedCall/yamnet_frames/tf_op_layer_log_mel_features/stft/frame/Reshape_1/log_mel_features/stft/frame/Reshape_1", "op": "Reshape", "input": ["StatefulPartitionedCall/yamnet_frames/tf_op_layer_log_mel_features/stft/frame/StridedSlice/log_mel_features/stft/frame/StridedSlice", "StatefulPartitionedCall/yamnet_frames/tf_op_layer_log_mel_features/stft/frame/concat_1/log_mel_features/stft/frame/concat_1"], "attr": {"T": {"type": "DT_FLOAT"}, "Tshape": {"type": "DT_INT32"}, "_cloned": {"b": true}}}, {"name": "StatefulPartitionedCall/yamnet_frames/tf_op_layer_log_mel_features/stft/frame/Reshape_2/log_mel_features/stft/frame/Reshape_2", "op": "Reshape", "input": ["StatefulPartitionedCall/yamnet_frames/tf_op_layer_log_mel_features/stft/frame/mul_1/log_mel_features/stft/frame/mul_1", "StatefulPartitionedCall/yamnet_frames/tf_op_layer_log_mel_features/stft/frame/Reshape_2/shape/log_mel_features/stft/frame/Reshape_2/shape"], "attr": {"T": {"type": "DT_INT32"}, "Tshape": {"type": "DT_INT32"}, "_cloned": {"b": true}}}, {"name": "StatefulPartitionedCall/yamnet_frames/tf_op_layer_log_mel_features/stft/frame/add_1/log_mel_features/stft/frame/add_1", "op": "AddV2", "input": ["StatefulPartitionedCall/yamnet_frames/tf_op_layer_log_mel_features/stft/frame/Reshape_2/log_mel_features/stft/frame/Reshape_2", "StatefulPartitionedCall/yamnet_frames/tf_op_layer_log_mel_features/stft/frame/add_1/log_mel_features/stft/frame/Reshape_3"], "attr": {"_cloned": {"b": true}, "T": {"type": "DT_INT32"}}}, {"name": "StatefulPartitionedCall/yamnet_frames/tf_op_layer_log_mel_features/stft/frame/GatherV2/log_mel_features/stft/frame/GatherV2", "op": "GatherV2", "input": ["StatefulPartitionedCall/yamnet_frames/tf_op_layer_log_mel_features/stft/frame/Reshape_1/log_mel_features/stft/frame/Reshape_1", "StatefulPartitionedCall/yamnet_frames/tf_op_layer_log_mel_features/stft/frame/add_1/log_mel_features/stft/frame/add_1", "StatefulPartitionedCall/yamnet_frames/tf_op_layer_log_mel_features/stft/frame/GatherV2/log_mel_features/stft/frame/strided_slice"], "attr": {"batch_dims": {"i": "0"}, "Taxis": {"type": "DT_INT32"}, "Tparams": {"type": "DT_FLOAT"}, "Tindices": {"type": "DT_INT32"}, "_cloned": {"b": true}}}, {"name": "StatefulPartitionedCall/yamnet_frames/tf_op_layer_log_mel_features/stft/frame/Reshape_4/log_mel_features/stft/frame/Reshape_4", "op": "Reshape", "input": ["StatefulPartitionedCall/yamnet_frames/tf_op_layer_log_mel_features/stft/frame/GatherV2/log_mel_features/stft/frame/GatherV2", "StatefulPartitionedCall/yamnet_frames/tf_op_layer_log_mel_features/stft/frame/concat_2/log_mel_features/stft/frame/concat_2"], "attr": {"Tshape": {"type": "DT_INT32"}, "_cloned": {"b": true}, "T": {"type": "DT_FLOAT"}}}, {"name": "StatefulPartitionedCall/yamnet_frames/tf_op_layer_log_mel_features/stft/mul/log_mel_features/stft/mul", "op": "Mul", "input": ["StatefulPartitionedCall/yamnet_frames/tf_op_layer_log_mel_features/stft/frame/Reshape_4/log_mel_features/stft/frame/Reshape_4", "StatefulPartitionedCall/yamnet_frames/tf_op_layer_log_mel_features/stft/mul/log_mel_features/stft/hann_window/sub_2"], "attr": {"_cloned": {"b": true}, "T": {"type": "DT_FLOAT"}}}, {"name": "StatefulPartitionedCall/yamnet_frames/tf_op_layer_log_mel_features/stft/rfft/Pad/log_mel_features/stft/rfft/Pad", "op": "Pad", "input": ["StatefulPartitionedCall/yamnet_frames/tf_op_layer_log_mel_features/stft/mul/log_mel_features/stft/mul", "StatefulPartitionedCall/yamnet_frames/tf_op_layer_log_mel_features/stft/rfft/Pad/log_mel_features/stft/rfft/Pad/paddings"], "attr": {"T": {"type": "DT_FLOAT"}, "Tpaddings": {"type": "DT_INT32"}, "_cloned": {"b": true}}}, {"name": "StatefulPartitionedCall/yamnet_frames/tf_op_layer_log_mel_features/stft/rfft/log_mel_features/stft/rfft", "op": "RFFT", "input": ["StatefulPartitionedCall/yamnet_frames/tf_op_layer_log_mel_features/stft/rfft/Pad/log_mel_features/stft/rfft/Pad", "StatefulPartitionedCall/yamnet_frames/tf_op_layer_log_mel_features/stft/rfft/log_mel_features/stft/rfft/fft_length"], "attr": {"_cloned": {"b": true}, "Tcomplex": {"type": "DT_COMPLEX64"}, "Treal": {"type": "DT_FLOAT"}}}, {"name": "StatefulPartitionedCall/yamnet_frames/tf_op_layer_log_mel_features/Abs/log_mel_features/Abs", "op": "ComplexAbs", "input": ["StatefulPartitionedCall/yamnet_frames/tf_op_layer_log_mel_features/stft/rfft/log_mel_features/stft/rfft"], "attr": {"Tout": {"type": "DT_FLOAT"}, "_cloned": {"b": true}, "T": {"type": "DT_COMPLEX64"}}}, {"name": "StatefulPartitionedCall/yamnet_frames/tf_op_layer_log_mel_features/MatMul/log_mel_features/MatMul", "op": "MatMul", "input": ["StatefulPartitionedCall/yamnet_frames/tf_op_layer_log_mel_features/Abs/log_mel_features/Abs", "StatefulPartitionedCall/yamnet_frames/tf_op_layer_log_mel_features/MatMul/log_mel_features/linear_to_mel_weight_matrix"], "device": "/device:CPU:0", "attr": {"transpose_a": {"b": false}, "T": {"type": "DT_FLOAT"}, "transpose_b": {"b": false}, "_cloned": {"b": true}}}, {"name": "StatefulPartitionedCall/yamnet_frames/tf_op_layer_log_mel_features/add/log_mel_features/add", "op": "AddV2", "input": ["StatefulPartitionedCall/yamnet_frames/tf_op_layer_log_mel_features/MatMul/log_mel_features/MatMul", "StatefulPartitionedCall/yamnet_frames/tf_op_layer_log_mel_features/add/log_mel_features/add/y"], "attr": {"T": {"type": "DT_FLOAT"}, "_cloned": {"b": true}}}, {"name": "StatefulPartitionedCall/yamnet_frames/tf_op_layer_log_mel_features/Log/log_mel_features/Log", "op": "Log", "input": ["StatefulPartitionedCall/yamnet_frames/tf_op_layer_log_mel_features/add/log_mel_features/add"], "attr": {"_cloned": {"b": true}, "T": {"type": "DT_FLOAT"}}}, {"name": "StatefulPartitionedCall/yamnet_frames/tf_op_layer_feature_patches/frame/Shape/feature_patches/frame/Shape", "op": "Shape", "input": ["StatefulPartitionedCall/yamnet_frames/tf_op_layer_log_mel_features/Log/log_mel_features/Log"], "attr": {"_cloned": {"b": true}, "T": {"type": "DT_FLOAT"}, "out_type": {"type": "DT_INT32"}}}, {"name": "Identity_1", "op": "Identity", "input": ["StatefulPartitionedCall/yamnet_frames/tf_op_layer_log_mel_features/Log/log_mel_features/Log"], "attr": {"T": {"type": "DT_FLOAT"}}}, {"name": "StatefulPartitionedCall/yamnet_frames/tf_op_layer_feature_patches/frame/split/feature_patches/frame/split", "op": "SplitV", "input": ["StatefulPartitionedCall/yamnet_frames/tf_op_layer_feature_patches/frame/Shape/feature_patches/frame/Shape", "StatefulPartitionedCall/yamnet_frames/tf_op_layer_feature_patches/frame/split/feature_patches/frame/packed", "StatefulPartitionedCall/yamnet_frames/tf_op_layer_feature_patches/frame/split/feature_patches/frame/split/split_dim"], "attr": {"_cloned": {"b": true}, "T": {"type": "DT_INT32"}, "Tlen": {"type": "DT_INT32"}, "num_split": {"i": "3"}}}, {"name": "StatefulPartitionedCall/yamnet_frames/tf_op_layer_feature_patches/frame/Reshape/feature_patches/frame/Reshape", "op": "Reshape", "input": ["StatefulPartitionedCall/yamnet_frames/tf_op_layer_feature_patches/frame/split/feature_patches/frame/split:1", "StatefulPartitionedCall/yamnet_frames/tf_op_layer_feature_patches/frame/Reshape/feature_patches/frame/Reshape/shape"], "attr": {"Tshape": {"type": "DT_INT32"}, "_cloned": {"b": true}, "T": {"type": "DT_INT32"}}}, {"name": "StatefulPartitionedCall/yamnet_frames/tf_op_layer_feature_patches/frame/floordiv_3/feature_patches/frame/floordiv_3", "op": "FloorDiv", "input": ["StatefulPartitionedCall/yamnet_frames/tf_op_layer_feature_patches/frame/Reshape/feature_patches/frame/Reshape", "StatefulPartitionedCall/yamnet_frames/tf_op_layer_feature_patches/frame/floordiv_3/feature_patches/frame/floordiv_3/y"], "attr": {"_cloned": {"b": true}, "T": {"type": "DT_INT32"}}}, {"name": "StatefulPartitionedCall/yamnet_frames/tf_op_layer_feature_patches/frame/sub_2/feature_patches/frame/sub_2", "op": "Sub", "input": ["StatefulPartitionedCall/yamnet_frames/tf_op_layer_feature_patches/frame/Reshape/feature_patches/frame/Reshape", "StatefulPartitionedCall/yamnet_frames/tf_op_layer_feature_patches/frame/sub_2/feature_patches/frame/frame_length"], "attr": {"T": {"type": "DT_INT32"}, "_cloned": {"b": true}}}, {"name": "StatefulPartitionedCall/yamnet_frames/tf_op_layer_feature_patches/frame/mul/feature_patches/frame/mul", "op": "Mul", "input": ["StatefulPartitionedCall/yamnet_frames/tf_op_layer_feature_patches/frame/floordiv_3/feature_patches/frame/floordiv_3", "StatefulPartitionedCall/yamnet_frames/tf_op_layer_feature_patches/frame/mul/feature_patches/frame/mul/y"], "attr": {"_cloned": {"b": true}, "T": {"type": "DT_INT32"}}}, {"name": "StatefulPartitionedCall/yamnet_frames/tf_op_layer_feature_patches/frame/concat_1/values_1/feature_patches/frame/concat_1/values_1", "op": "Pack", "input": ["StatefulPartitionedCall/yamnet_frames/tf_op_layer_feature_patches/frame/floordiv_3/feature_patches/frame/floordiv_3", "StatefulPartitionedCall/yamnet_frames/tf_op_layer_feature_patches/frame/concat_1/values_1/feature_patches/frame/concat_1/values_1/1"], "attr": {"_cloned": {"b": true}, "T": {"type": "DT_INT32"}, "N": {"i": "2"}, "axis": {"i": "0"}}}, {"name": "StatefulPartitionedCall/yamnet_frames/tf_op_layer_feature_patches/frame/floordiv/feature_patches/frame/floordiv", "op": "FloorDiv", "input": ["StatefulPartitionedCall/yamnet_frames/tf_op_layer_feature_patches/frame/sub_2/feature_patches/frame/sub_2", "StatefulPartitionedCall/yamnet_frames/tf_op_layer_feature_patches/frame/floordiv/feature_patches/frame/frame_step"], "attr": {"T": {"type": "DT_INT32"}, "_cloned": {"b": true}}}, {"name": "ConstantFolding/StatefulPartitionedCall/yamnet_frames/tf_op_layer_feature_patches/frame/concat/values_1/feature_patches/frame/concat/values_1_const_axis", "op": "Const", "input": ["^StatefulPartitionedCall/yamnet_frames/tf_op_layer_feature_patches/frame/mul/feature_patches/frame/mul"], "attr": {"dtype": {"type": "DT_INT32"}, "value": {"tensor": {"dtype": "DT_INT32", "tensorShape": {}}}}}, {"name": "StatefulPartitionedCall/yamnet_frames/tf_op_layer_feature_patches/frame/concat_1/feature_patches/frame/concat_1", "op": "ConcatV2", "input": ["StatefulPartitionedCall/yamnet_frames/tf_op_layer_feature_patches/frame/split/feature_patches/frame/split", "StatefulPartitionedCall/yamnet_frames/tf_op_layer_feature_patches/frame/concat_1/values_1/feature_patches/frame/concat_1/values_1", "StatefulPartitionedCall/yamnet_frames/tf_op_layer_feature_patches/frame/split/feature_patches/frame/split:2", "StatefulPartitionedCall/yamnet_frames/tf_op_layer_feature_patches/frame/concat_1/feature_patches/frame/concat_1/axis"], "attr": {"T": {"type": "DT_INT32"}, "N": {"i": "3"}, "Tidx": {"type": "DT_INT32"}, "_cloned": {"b": true}}}, {"name": "StatefulPartitionedCall/yamnet_frames/tf_op_layer_feature_patches/frame/add/feature_patches/frame/add", "op": "AddV2", "input": ["StatefulPartitionedCall/yamnet_frames/tf_op_layer_feature_patches/frame/add/feature_patches/frame/add/x", "StatefulPartitionedCall/yamnet_frames/tf_op_layer_feature_patches/frame/floordiv/feature_patches/frame/floordiv"], "attr": {"T": {"type": "DT_INT32"}, "_cloned": {"b": true}}}, {"name": "StatefulPartitionedCall/yamnet_frames/tf_op_layer_feature_patches/frame/concat/values_1/feature_patches/frame/concat/values_1", "op": "ExpandDims", "input": ["StatefulPartitionedCall/yamnet_frames/tf_op_layer_feature_patches/frame/mul/feature_patches/frame/mul", "ConstantFolding/StatefulPartitionedCall/yamnet_frames/tf_op_layer_feature_patches/frame/concat/values_1/feature_patches/frame/concat/values_1_const_axis"], "attr": {"T": {"type": "DT_INT32"}, "_cloned": {"b": true}, "Tdim": {"type": "DT_INT32"}}}, {"name": "StatefulPartitionedCall/yamnet_frames/tf_op_layer_feature_patches/frame/Maximum/feature_patches/frame/Maximum", "op": "Maximum", "input": ["StatefulPartitionedCall/yamnet_frames/tf_op_layer_feature_patches/frame/Maximum/feature_patches/frame/Maximum/x", "StatefulPartitionedCall/yamnet_frames/tf_op_layer_feature_patches/frame/add/feature_patches/frame/add"], "attr": {"T": {"type": "DT_INT32"}, "_cloned": {"b": true}}}, {"name": "StatefulPartitionedCall/yamnet_frames/tf_op_layer_feature_patches/frame/concat/feature_patches/frame/concat", "op": "ConcatV2", "input": ["StatefulPartitionedCall/yamnet_frames/tf_op_layer_feature_patches/frame/split/feature_patches/frame/split", "StatefulPartitionedCall/yamnet_frames/tf_op_layer_feature_patches/frame/concat/values_1/feature_patches/frame/concat/values_1", "StatefulPartitionedCall/yamnet_frames/tf_op_layer_feature_patches/frame/split/feature_patches/frame/split:2", "StatefulPartitionedCall/yamnet_frames/tf_op_layer_feature_patches/frame/concat/feature_patches/frame/concat/axis"], "attr": {"Tidx": {"type": "DT_INT32"}, "N": {"i": "3"}, "T": {"type": "DT_INT32"}, "_cloned": {"b": true}}}, {"name": "StatefulPartitionedCall/yamnet_frames/tf_op_layer_feature_patches/frame/range_1/feature_patches/frame/range_1", "op": "Range", "input": ["StatefulPartitionedCall/yamnet_frames/tf_op_layer_feature_patches/frame/range_1/feature_patches/frame/range_1/start", "StatefulPartitionedCall/yamnet_frames/tf_op_layer_feature_patches/frame/Maximum/feature_patches/frame/Maximum", "StatefulPartitionedCall/yamnet_frames/tf_op_layer_feature_patches/frame/range_1/feature_patches/frame/range_1/delta"], "attr": {"_cloned": {"b": true}, "Tidx": {"type": "DT_INT32"}}}, {"name": "StatefulPartitionedCall/yamnet_frames/tf_op_layer_feature_patches/frame/Reshape_2/shape/feature_patches/frame/Reshape_2/shape", "op": "Pack", "input": ["StatefulPartitionedCall/yamnet_frames/tf_op_layer_feature_patches/frame/Maximum/feature_patches/frame/Maximum", "StatefulPartitionedCall/yamnet_frames/tf_op_layer_feature_patches/frame/Reshape_2/shape/feature_patches/frame/Reshape_2/shape/1"], "attr": {"_cloned": {"b": true}, "axis": {"i": "0"}, "N": {"i": "2"}, "T": {"type": "DT_INT32"}}}, {"name": "StatefulPartitionedCall/yamnet_frames/tf_op_layer_feature_patches/frame/concat_2/values_1/feature_patches/frame/concat_2/values_1", "op": "Pack", "input": ["StatefulPartitionedCall/yamnet_frames/tf_op_layer_feature_patches/frame/Maximum/feature_patches/frame/Maximum", "StatefulPartitionedCall/yamnet_frames/tf_op_layer_feature_patches/frame/concat_2/values_1/feature_patches/frame/frame_length"], "attr": {"_cloned": {"b": true}, "axis": {"i": "0"}, "T": {"type": "DT_INT32"}, "N": {"i": "2"}}}, {"name": "StatefulPartitionedCall/yamnet_frames/tf_op_layer_feature_patches/frame/StridedSlice/feature_patches/frame/StridedSlice", "op": "StridedSlice", "input": ["StatefulPartitionedCall/yamnet_frames/tf_op_layer_log_mel_features/Log/log_mel_features/Log", "StatefulPartitionedCall/yamnet_frames/tf_op_layer_feature_patches/frame/StridedSlice/feature_patches/frame/zeros_like", "StatefulPartitionedCall/yamnet_frames/tf_op_layer_feature_patches/frame/concat/feature_patches/frame/concat", "StatefulPartitionedCall/yamnet_frames/tf_op_layer_feature_patches/frame/StridedSlice/feature_patches/frame/ones_like"], "attr": {"end_mask": {"i": "0"}, "begin_mask": {"i": "0"}, "new_axis_mask": {"i": "0"}, "shrink_axis_mask": {"i": "0"}, "_cloned": {"b": true}, "Index": {"type": "DT_INT32"}, "T": {"type": "DT_FLOAT"}, "ellipsis_mask": {"i": "0"}}}, {"name": "StatefulPartitionedCall/yamnet_frames/tf_op_layer_feature_patches/frame/Reshape_2/feature_patches/frame/Reshape_2", "op": "Reshape", "input": ["StatefulPartitionedCall/yamnet_frames/tf_op_layer_feature_patches/frame/range_1/feature_patches/frame/range_1", "StatefulPartitionedCall/yamnet_frames/tf_op_layer_feature_patches/frame/Reshape_2/shape/feature_patches/frame/Reshape_2/shape"], "attr": {"Tshape": {"type": "DT_INT32"}, "T": {"type": "DT_INT32"}, "_cloned": {"b": true}}}, {"name": "StatefulPartitionedCall/yamnet_frames/tf_op_layer_feature_patches/frame/concat_2/feature_patches/frame/concat_2", "op": "ConcatV2", "input": ["StatefulPartitionedCall/yamnet_frames/tf_op_layer_feature_patches/frame/split/feature_patches/frame/split", "StatefulPartitionedCall/yamnet_frames/tf_op_layer_feature_patches/frame/concat_2/values_1/feature_patches/frame/concat_2/values_1", "StatefulPartitionedCall/yamnet_frames/tf_op_layer_feature_patches/frame/split/feature_patches/frame/split:2", "StatefulPartitionedCall/yamnet_frames/tf_op_layer_feature_patches/frame/concat_2/feature_patches/frame/concat_2/axis"], "attr": {"N": {"i": "3"}, "T": {"type": "DT_INT32"}, "Tidx": {"type": "DT_INT32"}, "_cloned": {"b": true}}}, {"name": "StatefulPartitionedCall/yamnet_frames/tf_op_layer_feature_patches/frame/Reshape_1/feature_patches/frame/Reshape_1", "op": "Reshape", "input": ["StatefulPartitionedCall/yamnet_frames/tf_op_layer_feature_patches/frame/StridedSlice/feature_patches/frame/StridedSlice", "StatefulPartitionedCall/yamnet_frames/tf_op_layer_feature_patches/frame/concat_1/feature_patches/frame/concat_1"], "attr": {"Tshape": {"type": "DT_INT32"}, "T": {"type": "DT_FLOAT"}, "_cloned": {"b": true}}}, {"name": "StatefulPartitionedCall/yamnet_frames/tf_op_layer_feature_patches/frame/add_1/feature_patches/frame/add_1", "op": "AddV2", "input": ["StatefulPartitionedCall/yamnet_frames/tf_op_layer_feature_patches/frame/Reshape_2/feature_patches/frame/Reshape_2", "StatefulPartitionedCall/yamnet_frames/tf_op_layer_feature_patches/frame/add_1/feature_patches/frame/Reshape_3"], "attr": {"T": {"type": "DT_INT32"}, "_cloned": {"b": true}}}, {"name": "StatefulPartitionedCall/yamnet_frames/tf_op_layer_feature_patches/frame/GatherV2/feature_patches/frame/GatherV2", "op": "GatherV2", "input": ["StatefulPartitionedCall/yamnet_frames/tf_op_layer_feature_patches/frame/Reshape_1/feature_patches/frame/Reshape_1", "StatefulPartitionedCall/yamnet_frames/tf_op_layer_feature_patches/frame/add_1/feature_patches/frame/add_1", "StatefulPartitionedCall/yamnet_frames/tf_op_layer_feature_patches/frame/GatherV2/feature_patches/frame/strided_slice"], "attr": {"_cloned": {"b": true}, "Taxis": {"type": "DT_INT32"}, "Tparams": {"type": "DT_FLOAT"}, "batch_dims": {"i": "0"}, "Tindices": {"type": "DT_INT32"}}}, {"name": "StatefulPartitionedCall/yamnet_frames/tf_op_layer_feature_patches/frame/Reshape_4/feature_patches/frame/Reshape_4", "op": "Reshape", "input": ["StatefulPartitionedCall/yamnet_frames/tf_op_layer_feature_patches/frame/GatherV2/feature_patches/frame/GatherV2", "StatefulPartitionedCall/yamnet_frames/tf_op_layer_feature_patches/frame/concat_2/feature_patches/frame/concat_2"], "attr": {"T": {"type": "DT_FLOAT"}, "_cloned": {"b": true}, "Tshape": {"type": "DT_INT32"}}}, {"name": "StatefulPartitionedCall/yamnet_frames/reshape/Shape", "op": "Shape", "input": ["StatefulPartitionedCall/yamnet_frames/tf_op_layer_feature_patches/frame/Reshape_4/feature_patches/frame/Reshape_4"], "attr": {"T": {"type": "DT_FLOAT"}, "out_type": {"type": "DT_INT32"}}}, {"name": "StatefulPartitionedCall/yamnet_frames/reshape/strided_slice", "op": "StridedSlice", "input": ["StatefulPartitionedCall/yamnet_frames/reshape/Shape", "StatefulPartitionedCall/yamnet_frames/reshape/strided_slice/stack", "StatefulPartitionedCall/yamnet_frames/reshape/strided_slice/stack_1", "StatefulPartitionedCall/yamnet_frames/reshape/strided_slice/stack_2"], "attr": {"new_axis_mask": {"i": "0"}, "T": {"type": "DT_INT32"}, "shrink_axis_mask": {"i": "1"}, "ellipsis_mask": {"i": "0"}, "Index": {"type": "DT_INT32"}, "begin_mask": {"i": "0"}, "end_mask": {"i": "0"}}}, {"name": "StatefulPartitionedCall/yamnet_frames/reshape/Reshape/shape", "op": "Pack", "input": ["StatefulPartitionedCall/yamnet_frames/reshape/strided_slice", "StatefulPartitionedCall/yamnet_frames/reshape/Reshape/shape/1", "StatefulPartitionedCall/yamnet_frames/reshape/Reshape/shape/2", "StatefulPartitionedCall/yamnet_frames/reshape/Reshape/shape/3"], "attr": {"N": {"i": "4"}, "T": {"type": "DT_INT32"}, "axis": {"i": "0"}}}, {"name": "StatefulPartitionedCall/yamnet_frames/reshape/Reshape", "op": "Reshape", "input": ["StatefulPartitionedCall/yamnet_frames/tf_op_layer_feature_patches/frame/GatherV2/feature_patches/frame/GatherV2", "StatefulPartitionedCall/yamnet_frames/reshape/Reshape/shape"], "attr": {"T": {"type": "DT_FLOAT"}, "Tshape": {"type": "DT_INT32"}}}, {"name": "StatefulPartitionedCall/yamnet_frames/layer1/relu/Relu", "op": "_FusedConv2D", "input": ["StatefulPartitionedCall/yamnet_frames/reshape/Reshape", "StatefulPartitionedCall/yamnet_frames/layer1/conv/Conv2D_weights", "StatefulPartitionedCall/yamnet_frames/layer1/conv/Conv2D_bn_offset"], "device": "/device:CPU:0", "attr": {"num_args": {"i": "1"}, "use_cudnn_on_gpu": {"b": true}, "padding": {"s": "U0FNRQ=="}, "dilations": {"list": {"i": ["1", "1", "1", "1"]}}, "strides": {"list": {"i": ["1", "2", "2", "1"]}}, "epsilon": {"f": 0.0}, "explicit_paddings": {"list": {}}, "T": {"type": "DT_FLOAT"}, "data_format": {"s": "TkhXQw=="}, "fused_ops": {"list": {"s": ["Qmlhc0FkZA==", "UmVsdQ=="]}}}}, {"name": "StatefulPartitionedCall/yamnet_frames/layer2/depthwise_conv/depthwise", "op": "FusedDepthwiseConv2dNative", "input": ["StatefulPartitionedCall/yamnet_frames/layer1/relu/Relu", "StatefulPartitionedCall/yamnet_frames/layer2/depthwise_conv/depthwise_weights", "StatefulPartitionedCall/yamnet_frames/layer2/depthwise_conv/depthwise_bn_offset"], "attr": {"num_args": {"i": "1"}, "dilations": {"list": {"i": ["1", "1", "1", "1"]}}, "T": {"type": "DT_FLOAT"}, "padding": {"s": "U0FNRQ=="}, "fused_ops": {"list": {"s": ["Qmlhc0FkZA==", "UmVsdQ=="]}}, "explicit_paddings": {"list": {}}, "strides": {"list": {"i": ["1", "1", "1", "1"]}}, "data_format": {"s": "TkhXQw=="}}}, {"name": "StatefulPartitionedCall/yamnet_frames/layer2/pointwise_conv/relu/Relu", "op": "_FusedConv2D", "input": ["StatefulPartitionedCall/yamnet_frames/layer2/depthwise_conv/depthwise", "StatefulPartitionedCall/yamnet_frames/layer2/pointwise_conv/Conv2D_weights", "StatefulPartitionedCall/yamnet_frames/layer2/pointwise_conv/Conv2D_bn_offset"], "device": "/device:CPU:0", "attr": {"dilations": {"list": {"i": ["1", "1", "1", "1"]}}, "num_args": {"i": "1"}, "use_cudnn_on_gpu": {"b": true}, "T": {"type": "DT_FLOAT"}, "epsilon": {"f": 0.0}, "explicit_paddings": {"list": {}}, "strides": {"list": {"i": ["1", "1", "1", "1"]}}, "padding": {"s": "U0FNRQ=="}, "data_format": {"s": "TkhXQw=="}, "fused_ops": {"list": {"s": ["Qmlhc0FkZA==", "UmVsdQ=="]}}}}, {"name": "StatefulPartitionedCall/yamnet_frames/layer3/depthwise_conv/depthwise", "op": "FusedDepthwiseConv2dNative", "input": ["StatefulPartitionedCall/yamnet_frames/layer2/pointwise_conv/relu/Relu", "StatefulPartitionedCall/yamnet_frames/layer3/depthwise_conv/depthwise_weights", "StatefulPartitionedCall/yamnet_frames/layer3/depthwise_conv/depthwise_bn_offset"], "attr": {"num_args": {"i": "1"}, "dilations": {"list": {"i": ["1", "1", "1", "1"]}}, "strides": {"list": {"i": ["1", "2", "2", "1"]}}, "fused_ops": {"list": {"s": ["Qmlhc0FkZA==", "UmVsdQ=="]}}, "explicit_paddings": {"list": {}}, "T": {"type": "DT_FLOAT"}, "data_format": {"s": "TkhXQw=="}, "padding": {"s": "U0FNRQ=="}}}, {"name": "StatefulPartitionedCall/yamnet_frames/layer3/pointwise_conv/relu/Relu", "op": "_FusedConv2D", "input": ["StatefulPartitionedCall/yamnet_frames/layer3/depthwise_conv/depthwise", "StatefulPartitionedCall/yamnet_frames/layer3/pointwise_conv/Conv2D_weights", "StatefulPartitionedCall/yamnet_frames/layer3/pointwise_conv/Conv2D_bn_offset"], "device": "/device:CPU:0", "attr": {"explicit_paddings": {"list": {}}, "strides": {"list": {"i": ["1", "1", "1", "1"]}}, "epsilon": {"f": 0.0}, "fused_ops": {"list": {"s": ["Qmlhc0FkZA==", "UmVsdQ=="]}}, "dilations": {"list": {"i": ["1", "1", "1", "1"]}}, "num_args": {"i": "1"}, "padding": {"s": "U0FNRQ=="}, "T": {"type": "DT_FLOAT"}, "data_format": {"s": "TkhXQw=="}, "use_cudnn_on_gpu": {"b": true}}}, {"name": "StatefulPartitionedCall/yamnet_frames/layer4/depthwise_conv/depthwise", "op": "FusedDepthwiseConv2dNative", "input": ["StatefulPartitionedCall/yamnet_frames/layer3/pointwise_conv/relu/Relu", "StatefulPartitionedCall/yamnet_frames/layer4/depthwise_conv/depthwise_weights", "StatefulPartitionedCall/yamnet_frames/layer4/depthwise_conv/depthwise_bn_offset"], "attr": {"explicit_paddings": {"list": {}}, "padding": {"s": "U0FNRQ=="}, "fused_ops": {"list": {"s": ["Qmlhc0FkZA==", "UmVsdQ=="]}}, "T": {"type": "DT_FLOAT"}, "strides": {"list": {"i": ["1", "1", "1", "1"]}}, "data_format": {"s": "TkhXQw=="}, "dilations": {"list": {"i": ["1", "1", "1", "1"]}}, "num_args": {"i": "1"}}}, {"name": "StatefulPartitionedCall/yamnet_frames/layer4/pointwise_conv/relu/Relu", "op": "_FusedConv2D", "input": ["StatefulPartitionedCall/yamnet_frames/layer4/depthwise_conv/depthwise", "StatefulPartitionedCall/yamnet_frames/layer4/pointwise_conv/Conv2D_weights", "StatefulPartitionedCall/yamnet_frames/layer4/pointwise_conv/Conv2D_bn_offset"], "device": "/device:CPU:0", "attr": {"use_cudnn_on_gpu": {"b": true}, "epsilon": {"f": 0.0}, "T": {"type": "DT_FLOAT"}, "dilations": {"list": {"i": ["1", "1", "1", "1"]}}, "strides": {"list": {"i": ["1", "1", "1", "1"]}}, "padding": {"s": "U0FNRQ=="}, "data_format": {"s": "TkhXQw=="}, "num_args": {"i": "1"}, "explicit_paddings": {"list": {}}, "fused_ops": {"list": {"s": ["Qmlhc0FkZA==", "UmVsdQ=="]}}}}, {"name": "StatefulPartitionedCall/yamnet_frames/layer5/depthwise_conv/depthwise", "op": "FusedDepthwiseConv2dNative", "input": ["StatefulPartitionedCall/yamnet_frames/layer4/pointwise_conv/relu/Relu", "StatefulPartitionedCall/yamnet_frames/layer5/depthwise_conv/depthwise_weights", "StatefulPartitionedCall/yamnet_frames/layer5/depthwise_conv/depthwise_bn_offset"], "attr": {"num_args": {"i": "1"}, "explicit_paddings": {"list": {}}, "dilations": {"list": {"i": ["1", "1", "1", "1"]}}, "padding": {"s": "U0FNRQ=="}, "T": {"type": "DT_FLOAT"}, "fused_ops": {"list": {"s": ["Qmlhc0FkZA==", "UmVsdQ=="]}}, "data_format": {"s": "TkhXQw=="}, "strides": {"list": {"i": ["1", "2", "2", "1"]}}}}, {"name": "StatefulPartitionedCall/yamnet_frames/layer5/pointwise_conv/relu/Relu", "op": "_FusedConv2D", "input": ["StatefulPartitionedCall/yamnet_frames/layer5/depthwise_conv/depthwise", "StatefulPartitionedCall/yamnet_frames/layer5/pointwise_conv/Conv2D_weights", "StatefulPartitionedCall/yamnet_frames/layer5/pointwise_conv/Conv2D_bn_offset"], "device": "/device:CPU:0", "attr": {"fused_ops": {"list": {"s": ["Qmlhc0FkZA==", "UmVsdQ=="]}}, "num_args": {"i": "1"}, "explicit_paddings": {"list": {}}, "data_format": {"s": "TkhXQw=="}, "padding": {"s": "U0FNRQ=="}, "epsilon": {"f": 0.0}, "T": {"type": "DT_FLOAT"}, "strides": {"list": {"i": ["1", "1", "1", "1"]}}, "use_cudnn_on_gpu": {"b": true}, "dilations": {"list": {"i": ["1", "1", "1", "1"]}}}}, {"name": "StatefulPartitionedCall/yamnet_frames/layer6/depthwise_conv/depthwise", "op": "FusedDepthwiseConv2dNative", "input": ["StatefulPartitionedCall/yamnet_frames/layer5/pointwise_conv/relu/Relu", "StatefulPartitionedCall/yamnet_frames/layer6/depthwise_conv/depthwise_weights", "StatefulPartitionedCall/yamnet_frames/layer6/depthwise_conv/depthwise_bn_offset"], "attr": {"fused_ops": {"list": {"s": ["Qmlhc0FkZA==", "UmVsdQ=="]}}, "num_args": {"i": "1"}, "strides": {"list": {"i": ["1", "1", "1", "1"]}}, "T": {"type": "DT_FLOAT"}, "explicit_paddings": {"list": {}}, "padding": {"s": "U0FNRQ=="}, "dilations": {"list": {"i": ["1", "1", "1", "1"]}}, "data_format": {"s": "TkhXQw=="}}}, {"name": "StatefulPartitionedCall/yamnet_frames/layer6/pointwise_conv/relu/Relu", "op": "_FusedConv2D", "input": ["StatefulPartitionedCall/yamnet_frames/layer6/depthwise_conv/depthwise", "StatefulPartitionedCall/yamnet_frames/layer6/pointwise_conv/Conv2D_weights", "StatefulPartitionedCall/yamnet_frames/layer6/pointwise_conv/Conv2D_bn_offset"], "device": "/device:CPU:0", "attr": {"explicit_paddings": {"list": {}}, "num_args": {"i": "1"}, "padding": {"s": "U0FNRQ=="}, "T": {"type": "DT_FLOAT"}, "use_cudnn_on_gpu": {"b": true}, "dilations": {"list": {"i": ["1", "1", "1", "1"]}}, "strides": {"list": {"i": ["1", "1", "1", "1"]}}, "data_format": {"s": "TkhXQw=="}, "fused_ops": {"list": {"s": ["Qmlhc0FkZA==", "UmVsdQ=="]}}, "epsilon": {"f": 0.0}}}, {"name": "StatefulPartitionedCall/yamnet_frames/layer7/depthwise_conv/depthwise", "op": "FusedDepthwiseConv2dNative", "input": ["StatefulPartitionedCall/yamnet_frames/layer6/pointwise_conv/relu/Relu", "StatefulPartitionedCall/yamnet_frames/layer7/depthwise_conv/depthwise_weights", "StatefulPartitionedCall/yamnet_frames/layer7/depthwise_conv/depthwise_bn_offset"], "attr": {"num_args": {"i": "1"}, "fused_ops": {"list": {"s": ["Qmlhc0FkZA==", "UmVsdQ=="]}}, "strides": {"list": {"i": ["1", "2", "2", "1"]}}, "dilations": {"list": {"i": ["1", "1", "1", "1"]}}, "padding": {"s": "U0FNRQ=="}, "explicit_paddings": {"list": {}}, "T": {"type": "DT_FLOAT"}, "data_format": {"s": "TkhXQw=="}}}, {"name": "StatefulPartitionedCall/yamnet_frames/layer7/pointwise_conv/relu/Relu", "op": "_FusedConv2D", "input": ["StatefulPartitionedCall/yamnet_frames/layer7/depthwise_conv/depthwise", "StatefulPartitionedCall/yamnet_frames/layer7/pointwise_conv/Conv2D_weights", "StatefulPartitionedCall/yamnet_frames/layer7/pointwise_conv/Conv2D_bn_offset"], "device": "/device:CPU:0", "attr": {"fused_ops": {"list": {"s": ["Qmlhc0FkZA==", "UmVsdQ=="]}}, "epsilon": {"f": 0.0}, "num_args": {"i": "1"}, "padding": {"s": "U0FNRQ=="}, "use_cudnn_on_gpu": {"b": true}, "T": {"type": "DT_FLOAT"}, "data_format": {"s": "TkhXQw=="}, "explicit_paddings": {"list": {}}, "strides": {"list": {"i": ["1", "1", "1", "1"]}}, "dilations": {"list": {"i": ["1", "1", "1", "1"]}}}}, {"name": "StatefulPartitionedCall/yamnet_frames/layer8/depthwise_conv/depthwise", "op": "FusedDepthwiseConv2dNative", "input": ["StatefulPartitionedCall/yamnet_frames/layer7/pointwise_conv/relu/Relu", "StatefulPartitionedCall/yamnet_frames/layer8/depthwise_conv/depthwise_weights", "StatefulPartitionedCall/yamnet_frames/layer8/depthwise_conv/depthwise_bn_offset"], "attr": {"dilations": {"list": {"i": ["1", "1", "1", "1"]}}, "data_format": {"s": "TkhXQw=="}, "num_args": {"i": "1"}, "fused_ops": {"list": {"s": ["Qmlhc0FkZA==", "UmVsdQ=="]}}, "T": {"type": "DT_FLOAT"}, "explicit_paddings": {"list": {}}, "padding": {"s": "U0FNRQ=="}, "strides": {"list": {"i": ["1", "1", "1", "1"]}}}}, {"name": "StatefulPartitionedCall/yamnet_frames/layer8/pointwise_conv/relu/Relu", "op": "_FusedConv2D", "input": ["StatefulPartitionedCall/yamnet_frames/layer8/depthwise_conv/depthwise", "StatefulPartitionedCall/yamnet_frames/layer8/pointwise_conv/Conv2D_weights", "StatefulPartitionedCall/yamnet_frames/layer8/pointwise_conv/Conv2D_bn_offset"], "device": "/device:CPU:0", "attr": {"T": {"type": "DT_FLOAT"}, "use_cudnn_on_gpu": {"b": true}, "num_args": {"i": "1"}, "epsilon": {"f": 0.0}, "dilations": {"list": {"i": ["1", "1", "1", "1"]}}, "explicit_paddings": {"list": {}}, "data_format": {"s": "TkhXQw=="}, "strides": {"list": {"i": ["1", "1", "1", "1"]}}, "fused_ops": {"list": {"s": ["Qmlhc0FkZA==", "UmVsdQ=="]}}, "padding": {"s": "U0FNRQ=="}}}, {"name": "StatefulPartitionedCall/yamnet_frames/layer9/depthwise_conv/depthwise", "op": "FusedDepthwiseConv2dNative", "input": ["StatefulPartitionedCall/yamnet_frames/layer8/pointwise_conv/relu/Relu", "StatefulPartitionedCall/yamnet_frames/layer9/depthwise_conv/depthwise_weights", "StatefulPartitionedCall/yamnet_frames/layer9/depthwise_conv/depthwise_bn_offset"], "attr": {"dilations": {"list": {"i": ["1", "1", "1", "1"]}}, "data_format": {"s": "TkhXQw=="}, "explicit_paddings": {"list": {}}, "num_args": {"i": "1"}, "strides": {"list": {"i": ["1", "1", "1", "1"]}}, "T": {"type": "DT_FLOAT"}, "fused_ops": {"list": {"s": ["Qmlhc0FkZA==", "UmVsdQ=="]}}, "padding": {"s": "U0FNRQ=="}}}, {"name": "StatefulPartitionedCall/yamnet_frames/layer9/pointwise_conv/relu/Relu", "op": "_FusedConv2D", "input": ["StatefulPartitionedCall/yamnet_frames/layer9/depthwise_conv/depthwise", "StatefulPartitionedCall/yamnet_frames/layer9/pointwise_conv/Conv2D_weights", "StatefulPartitionedCall/yamnet_frames/layer9/pointwise_conv/Conv2D_bn_offset"], "device": "/device:CPU:0", "attr": {"strides": {"list": {"i": ["1", "1", "1", "1"]}}, "fused_ops": {"list": {"s": ["Qmlhc0FkZA==", "UmVsdQ=="]}}, "data_format": {"s": "TkhXQw=="}, "padding": {"s": "U0FNRQ=="}, "use_cudnn_on_gpu": {"b": true}, "explicit_paddings": {"list": {}}, "dilations": {"list": {"i": ["1", "1", "1", "1"]}}, "epsilon": {"f": 0.0}, "num_args": {"i": "1"}, "T": {"type": "DT_FLOAT"}}}, {"name": "StatefulPartitionedCall/yamnet_frames/layer10/depthwise_conv/depthwise", "op": "FusedDepthwiseConv2dNative", "input": ["StatefulPartitionedCall/yamnet_frames/layer9/pointwise_conv/relu/Relu", "StatefulPartitionedCall/yamnet_frames/layer10/depthwise_conv/depthwise_weights", "StatefulPartitionedCall/yamnet_frames/layer10/depthwise_conv/depthwise_bn_offset"], "attr": {"padding": {"s": "U0FNRQ=="}, "explicit_paddings": {"list": {}}, "dilations": {"list": {"i": ["1", "1", "1", "1"]}}, "strides": {"list": {"i": ["1", "1", "1", "1"]}}, "T": {"type": "DT_FLOAT"}, "fused_ops": {"list": {"s": ["Qmlhc0FkZA==", "UmVsdQ=="]}}, "num_args": {"i": "1"}, "data_format": {"s": "TkhXQw=="}}}, {"name": "StatefulPartitionedCall/yamnet_frames/layer10/pointwise_conv/relu/Relu", "op": "_FusedConv2D", "input": ["StatefulPartitionedCall/yamnet_frames/layer10/depthwise_conv/depthwise", "StatefulPartitionedCall/yamnet_frames/layer10/pointwise_conv/Conv2D_weights", "StatefulPartitionedCall/yamnet_frames/layer10/pointwise_conv/Conv2D_bn_offset"], "device": "/device:CPU:0", "attr": {"use_cudnn_on_gpu": {"b": true}, "T": {"type": "DT_FLOAT"}, "epsilon": {"f": 0.0}, "strides": {"list": {"i": ["1", "1", "1", "1"]}}, "dilations": {"list": {"i": ["1", "1", "1", "1"]}}, "padding": {"s": "U0FNRQ=="}, "explicit_paddings": {"list": {}}, "fused_ops": {"list": {"s": ["Qmlhc0FkZA==", "UmVsdQ=="]}}, "num_args": {"i": "1"}, "data_format": {"s": "TkhXQw=="}}}, {"name": "StatefulPartitionedCall/yamnet_frames/layer11/depthwise_conv/depthwise", "op": "FusedDepthwiseConv2dNative", "input": ["StatefulPartitionedCall/yamnet_frames/layer10/pointwise_conv/relu/Relu", "StatefulPartitionedCall/yamnet_frames/layer11/depthwise_conv/depthwise_weights", "StatefulPartitionedCall/yamnet_frames/layer11/depthwise_conv/depthwise_bn_offset"], "attr": {"padding": {"s": "U0FNRQ=="}, "strides": {"list": {"i": ["1", "1", "1", "1"]}}, "fused_ops": {"list": {"s": ["Qmlhc0FkZA==", "UmVsdQ=="]}}, "num_args": {"i": "1"}, "T": {"type": "DT_FLOAT"}, "data_format": {"s": "TkhXQw=="}, "explicit_paddings": {"list": {}}, "dilations": {"list": {"i": ["1", "1", "1", "1"]}}}}, {"name": "StatefulPartitionedCall/yamnet_frames/layer11/pointwise_conv/relu/Relu", "op": "_FusedConv2D", "input": ["StatefulPartitionedCall/yamnet_frames/layer11/depthwise_conv/depthwise", "StatefulPartitionedCall/yamnet_frames/layer11/pointwise_conv/Conv2D_weights", "StatefulPartitionedCall/yamnet_frames/layer11/pointwise_conv/Conv2D_bn_offset"], "device": "/device:CPU:0", "attr": {"epsilon": {"f": 0.0}, "dilations": {"list": {"i": ["1", "1", "1", "1"]}}, "strides": {"list": {"i": ["1", "1", "1", "1"]}}, "num_args": {"i": "1"}, "T": {"type": "DT_FLOAT"}, "explicit_paddings": {"list": {}}, "data_format": {"s": "TkhXQw=="}, "padding": {"s": "U0FNRQ=="}, "use_cudnn_on_gpu": {"b": true}, "fused_ops": {"list": {"s": ["Qmlhc0FkZA==", "UmVsdQ=="]}}}}, {"name": "StatefulPartitionedCall/yamnet_frames/layer12/depthwise_conv/depthwise", "op": "FusedDepthwiseConv2dNative", "input": ["StatefulPartitionedCall/yamnet_frames/layer11/pointwise_conv/relu/Relu", "StatefulPartitionedCall/yamnet_frames/layer12/depthwise_conv/depthwise_weights", "StatefulPartitionedCall/yamnet_frames/layer12/depthwise_conv/depthwise_bn_offset"], "attr": {"data_format": {"s": "TkhXQw=="}, "dilations": {"list": {"i": ["1", "1", "1", "1"]}}, "num_args": {"i": "1"}, "fused_ops": {"list": {"s": ["Qmlhc0FkZA==", "UmVsdQ=="]}}, "explicit_paddings": {"list": {}}, "strides": {"list": {"i": ["1", "1", "1", "1"]}}, "padding": {"s": "U0FNRQ=="}, "T": {"type": "DT_FLOAT"}}}, {"name": "StatefulPartitionedCall/yamnet_frames/layer12/pointwise_conv/relu/Relu", "op": "_FusedConv2D", "input": ["StatefulPartitionedCall/yamnet_frames/layer12/depthwise_conv/depthwise", "StatefulPartitionedCall/yamnet_frames/layer12/pointwise_conv/Conv2D_weights", "StatefulPartitionedCall/yamnet_frames/layer12/pointwise_conv/Conv2D_bn_offset"], "device": "/device:CPU:0", "attr": {"dilations": {"list": {"i": ["1", "1", "1", "1"]}}, "fused_ops": {"list": {"s": ["Qmlhc0FkZA==", "UmVsdQ=="]}}, "strides": {"list": {"i": ["1", "1", "1", "1"]}}, "padding": {"s": "U0FNRQ=="}, "T": {"type": "DT_FLOAT"}, "explicit_paddings": {"list": {}}, "data_format": {"s": "TkhXQw=="}, "num_args": {"i": "1"}, "epsilon": {"f": 0.0}, "use_cudnn_on_gpu": {"b": true}}}, {"name": "StatefulPartitionedCall/yamnet_frames/layer13/depthwise_conv/depthwise", "op": "FusedDepthwiseConv2dNative", "input": ["StatefulPartitionedCall/yamnet_frames/layer12/pointwise_conv/relu/Relu", "StatefulPartitionedCall/yamnet_frames/layer13/depthwise_conv/depthwise_weights", "StatefulPartitionedCall/yamnet_frames/layer13/depthwise_conv/depthwise_bn_offset"], "attr": {"dilations": {"list": {"i": ["1", "1", "1", "1"]}}, "fused_ops": {"list": {"s": ["Qmlhc0FkZA==", "UmVsdQ=="]}}, "T": {"type": "DT_FLOAT"}, "strides": {"list": {"i": ["1", "2", "2", "1"]}}, "num_args": {"i": "1"}, "padding": {"s": "U0FNRQ=="}, "explicit_paddings": {"list": {}}, "data_format": {"s": "TkhXQw=="}}}, {"name": "StatefulPartitionedCall/yamnet_frames/layer13/pointwise_conv/relu/Relu", "op": "_FusedConv2D", "input": ["StatefulPartitionedCall/yamnet_frames/layer13/depthwise_conv/depthwise", "StatefulPartitionedCall/yamnet_frames/layer13/pointwise_conv/Conv2D_weights", "StatefulPartitionedCall/yamnet_frames/layer13/pointwise_conv/Conv2D_bn_offset"], "device": "/device:CPU:0", "attr": {"strides": {"list": {"i": ["1", "1", "1", "1"]}}, "explicit_paddings": {"list": {}}, "T": {"type": "DT_FLOAT"}, "use_cudnn_on_gpu": {"b": true}, "epsilon": {"f": 0.0}, "num_args": {"i": "1"}, "padding": {"s": "U0FNRQ=="}, "dilations": {"list": {"i": ["1", "1", "1", "1"]}}, "fused_ops": {"list": {"s": ["Qmlhc0FkZA==", "UmVsdQ=="]}}, "data_format": {"s": "TkhXQw=="}}}, {"name": "StatefulPartitionedCall/yamnet_frames/layer14/depthwise_conv/depthwise", "op": "FusedDepthwiseConv2dNative", "input": ["StatefulPartitionedCall/yamnet_frames/layer13/pointwise_conv/relu/Relu", "StatefulPartitionedCall/yamnet_frames/layer14/depthwise_conv/depthwise_weights", "StatefulPartitionedCall/yamnet_frames/layer14/depthwise_conv/depthwise_bn_offset"], "attr": {"strides": {"list": {"i": ["1", "1", "1", "1"]}}, "dilations": {"list": {"i": ["1", "1", "1", "1"]}}, "T": {"type": "DT_FLOAT"}, "padding": {"s": "U0FNRQ=="}, "num_args": {"i": "1"}, "fused_ops": {"list": {"s": ["Qmlhc0FkZA==", "UmVsdQ=="]}}, "explicit_paddings": {"list": {}}, "data_format": {"s": "TkhXQw=="}}}, {"name": "StatefulPartitionedCall/yamnet_frames/layer14/pointwise_conv/relu/Relu", "op": "_FusedConv2D", "input": ["StatefulPartitionedCall/yamnet_frames/layer14/depthwise_conv/depthwise", "StatefulPartitionedCall/yamnet_frames/layer14/pointwise_conv/Conv2D_weights", "StatefulPartitionedCall/yamnet_frames/layer14/pointwise_conv/Conv2D_bn_offset"], "device": "/device:CPU:0", "attr": {"explicit_paddings": {"list": {}}, "strides": {"list": {"i": ["1", "1", "1", "1"]}}, "T": {"type": "DT_FLOAT"}, "use_cudnn_on_gpu": {"b": true}, "num_args": {"i": "1"}, "fused_ops": {"list": {"s": ["Qmlhc0FkZA==", "UmVsdQ=="]}}, "padding": {"s": "U0FNRQ=="}, "data_format": {"s": "TkhXQw=="}, "epsilon": {"f": 0.0}, "dilations": {"list": {"i": ["1", "1", "1", "1"]}}}}, {"name": "StatefulPartitionedCall/yamnet_frames/global_average_pooling2d/Mean", "op": "Mean", "input": ["StatefulPartitionedCall/yamnet_frames/layer14/pointwise_conv/relu/Relu", "StatefulPartitionedCall/yamnet_frames/global_average_pooling2d/Mean/reduction_indices"], "attr": {"Tidx": {"type": "DT_INT32"}, "keep_dims": {"b": false}, "T": {"type": "DT_FLOAT"}}}, {"name": "StatefulPartitionedCall/yamnet_frames/dense/BiasAdd", "op": "_FusedMatMul", "input": ["StatefulPartitionedCall/yamnet_frames/global_average_pooling2d/Mean", "dense_kernel", "dense_bias"], "device": "/device:CPU:0", "attr": {"transpose_b": {"b": false}, "epsilon": {"f": 0.0}, "num_args": {"i": "1"}, "transpose_a": {"b": false}, "fused_ops": {"list": {"s": ["Qmlhc0FkZA=="]}}, "T": {"type": "DT_FLOAT"}}}, {"name": "StatefulPartitionedCall/yamnet_frames/predictions/Sigmoid", "op": "Sigmoid", "input": ["StatefulPartitionedCall/yamnet_frames/dense/BiasAdd"], "attr": {"T": {"type": "DT_FLOAT"}}}, {"name": "Identity", "op": "Identity", "input": ["StatefulPartitionedCall/yamnet_frames/predictions/Sigmoid"], "attr": {"T": {"type": "DT_FLOAT"}}}], "library": {}, "versions": {"producer": 440}}, "weightsManifest": [{"paths": ["group1-shard1of4.bin", "group1-shard2of4.bin", "group1-shard3of4.bin", "group1-shard4of4.bin"], "weights": [{"name": "StatefulPartitionedCall/yamnet_frames/tf_op_layer_feature_patches/frame/StridedSlice/feature_patches/frame/zeros_like", "shape": [2], "dtype": "int32"}, {"name": "StatefulPartitionedCall/yamnet_frames/tf_op_layer_feature_patches/frame/mul/feature_patches/frame/mul/y", "shape": [], "dtype": "int32"}, {"name": "StatefulPartitionedCall/yamnet_frames/tf_op_layer_feature_patches/frame/concat/feature_patches/frame/concat/axis", "shape": [], "dtype": "int32"}, {"name": "StatefulPartitionedCall/yamnet_frames/tf_op_layer_feature_patches/frame/StridedSlice/feature_patches/frame/ones_like", "shape": [2], "dtype": "int32"}, {"name": "StatefulPartitionedCall/yamnet_frames/tf_op_layer_feature_patches/frame/floordiv_3/feature_patches/frame/floordiv_3/y", "shape": [], "dtype": "int32"}, {"name": "StatefulPartitionedCall/yamnet_frames/tf_op_layer_feature_patches/frame/concat_1/values_1/feature_patches/frame/concat_1/values_1/1", "shape": [], "dtype": "int32"}, {"name": "StatefulPartitionedCall/yamnet_frames/tf_op_layer_feature_patches/frame/concat_1/feature_patches/frame/concat_1/axis", "shape": [], "dtype": "int32"}, {"name": "StatefulPartitionedCall/yamnet_frames/tf_op_layer_feature_patches/frame/range_1/feature_patches/frame/range_1/start", "shape": [], "dtype": "int32"}, {"name": "StatefulPartitionedCall/yamnet_frames/tf_op_layer_feature_patches/frame/range_1/feature_patches/frame/range_1/delta", "shape": [], "dtype": "int32"}, {"name": "StatefulPartitionedCall/yamnet_frames/tf_op_layer_feature_patches/frame/Reshape_2/shape/feature_patches/frame/Reshape_2/shape/1", "shape": [], "dtype": "int32"}, {"name": "StatefulPartitionedCall/yamnet_frames/tf_op_layer_feature_patches/frame/add_1/feature_patches/frame/Reshape_3", "shape": [1, 2], "dtype": "int32"}, {"name": "StatefulPartitionedCall/yamnet_frames/tf_op_layer_feature_patches/frame/GatherV2/feature_patches/frame/strided_slice", "shape": [], "dtype": "int32"}, {"name": "StatefulPartitionedCall/yamnet_frames/tf_op_layer_feature_patches/frame/Maximum/feature_patches/frame/Maximum/x", "shape": [], "dtype": "int32"}, {"name": "StatefulPartitionedCall/yamnet_frames/tf_op_layer_feature_patches/frame/add/feature_patches/frame/add/x", "shape": [], "dtype": "int32"}, {"name": "StatefulPartitionedCall/yamnet_frames/tf_op_layer_feature_patches/frame/Reshape/feature_patches/frame/Reshape/shape", "shape": [0], "dtype": "int32"}, {"name": "StatefulPartitionedCall/yamnet_frames/tf_op_layer_feature_patches/frame/sub_2/feature_patches/frame/frame_length", "shape": [], "dtype": "int32"}, {"name": "StatefulPartitionedCall/yamnet_frames/tf_op_layer_feature_patches/frame/floordiv/feature_patches/frame/frame_step", "shape": [], "dtype": "int32"}, {"name": "StatefulPartitionedCall/yamnet_frames/tf_op_layer_feature_patches/frame/concat_2/values_1/feature_patches/frame/frame_length", "shape": [], "dtype": "int32"}, {"name": "StatefulPartitionedCall/yamnet_frames/tf_op_layer_feature_patches/frame/split/feature_patches/frame/packed", "shape": [3], "dtype": "int32"}, {"name": "StatefulPartitionedCall/yamnet_frames/tf_op_layer_feature_patches/frame/split/feature_patches/frame/split/split_dim", "shape": [], "dtype": "int32"}, {"name": "StatefulPartitionedCall/yamnet_frames/tf_op_layer_feature_patches/frame/concat_2/feature_patches/frame/concat_2/axis", "shape": [], "dtype": "int32"}, {"name": "StatefulPartitionedCall/yamnet_frames/reshape/strided_slice/stack", "shape": [1], "dtype": "int32"}, {"name": "StatefulPartitionedCall/yamnet_frames/reshape/strided_slice/stack_1", "shape": [1], "dtype": "int32"}, {"name": "StatefulPartitionedCall/yamnet_frames/reshape/strided_slice/stack_2", "shape": [1], "dtype": "int32"}, {"name": "StatefulPartitionedCall/yamnet_frames/reshape/Reshape/shape/1", "shape": [], "dtype": "int32"}, {"name": "StatefulPartitionedCall/yamnet_frames/reshape/Reshape/shape/2", "shape": [], "dtype": "int32"}, {"name": "StatefulPartitionedCall/yamnet_frames/reshape/Reshape/shape/3", "shape": [], "dtype": "int32"}, {"name": "StatefulPartitionedCall/yamnet_frames/global_average_pooling2d/Mean/reduction_indices", "shape": [2], "dtype": "int32"}, {"name": "dense_kernel", "shape": [1024, 521], "dtype": "float32"}, {"name": "dense_bias", "shape": [521], "dtype": "float32"}, {"name": "StatefulPartitionedCall/yamnet_frames/tf_op_layer_log_mel_features/stft/frame/StridedSlice/log_mel_features/stft/frame/zeros_like", "shape": [1], "dtype": "int32"}, {"name": "StatefulPartitionedCall/yamnet_frames/tf_op_layer_log_mel_features/stft/frame/mul/log_mel_features/stft/frame/mul/y", "shape": [], "dtype": "int32"}, {"name": "StatefulPartitionedCall/yamnet_frames/tf_op_layer_log_mel_features/stft/frame/concat/log_mel_features/stft/frame/concat/axis", "shape": [], "dtype": "int32"}, {"name": "StatefulPartitionedCall/yamnet_frames/tf_op_layer_log_mel_features/stft/frame/StridedSlice/log_mel_features/stft/frame/ones_like", "shape": [1], "dtype": "int32"}, {"name": "StatefulPartitionedCall/yamnet_frames/tf_op_layer_log_mel_features/stft/frame/floordiv_3/log_mel_features/stft/frame/floordiv_3/y", "shape": [], "dtype": "int32"}, {"name": "StatefulPartitionedCall/yamnet_frames/tf_op_layer_log_mel_features/stft/frame/concat_1/values_1/log_mel_features/stft/frame/concat_1/values_1/1", "shape": [], "dtype": "int32"}, {"name": "StatefulPartitionedCall/yamnet_frames/tf_op_layer_log_mel_features/stft/frame/concat_1/log_mel_features/stft/frame/concat_1/axis", "shape": [], "dtype": "int32"}, {"name": "StatefulPartitionedCall/yamnet_frames/tf_op_layer_log_mel_features/stft/frame/range_1/log_mel_features/stft/frame/range_1/start", "shape": [], "dtype": "int32"}, {"name": "StatefulPartitionedCall/yamnet_frames/tf_op_layer_log_mel_features/stft/frame/range_1/log_mel_features/stft/frame/range_1/delta", "shape": [], "dtype": "int32"}, {"name": "StatefulPartitionedCall/yamnet_frames/tf_op_layer_log_mel_features/stft/frame/mul_1/log_mel_features/stft/frame/floordiv_2", "shape": [], "dtype": "int32"}, {"name": "StatefulPartitionedCall/yamnet_frames/tf_op_layer_log_mel_features/stft/frame/Reshape_2/shape/log_mel_features/stft/frame/Reshape_2/shape/1", "shape": [], "dtype": "int32"}, {"name": "StatefulPartitionedCall/yamnet_frames/tf_op_layer_log_mel_features/stft/frame/add_1/log_mel_features/stft/frame/Reshape_3", "shape": [1, 5], "dtype": "int32"}, {"name": "StatefulPartitionedCall/yamnet_frames/tf_op_layer_log_mel_features/stft/frame/GatherV2/log_mel_features/stft/frame/strided_slice", "shape": [], "dtype": "int32"}, {"name": "StatefulPartitionedCall/yamnet_frames/tf_op_layer_log_mel_features/stft/frame/Maximum/log_mel_features/stft/frame/Maximum/x", "shape": [], "dtype": "int32"}, {"name": "StatefulPartitionedCall/yamnet_frames/tf_op_layer_log_mel_features/stft/frame/add/log_mel_features/stft/frame/add/x", "shape": [], "dtype": "int32"}, {"name": "StatefulPartitionedCall/yamnet_frames/tf_op_layer_log_mel_features/stft/frame/Reshape/log_mel_features/stft/frame/Reshape/shape", "shape": [0], "dtype": "int32"}, {"name": "StatefulPartitionedCall/yamnet_frames/tf_op_layer_log_mel_features/stft/frame/sub_2/log_mel_features/stft/frame_length", "shape": [], "dtype": "int32"}, {"name": "StatefulPartitionedCall/yamnet_frames/tf_op_layer_log_mel_features/stft/frame/floordiv/log_mel_features/stft/frame_step", "shape": [], "dtype": "int32"}, {"name": "StatefulPartitionedCall/yamnet_frames/tf_op_layer_log_mel_features/stft/frame/concat_2/values_1/log_mel_features/stft/frame_length", "shape": [], "dtype": "int32"}, {"name": "StatefulPartitionedCall/yamnet_frames/tf_op_layer_log_mel_features/stft/frame/split/log_mel_features/stft/frame/packed", "shape": [3], "dtype": "int32"}, {"name": "StatefulPartitionedCall/yamnet_frames/tf_op_layer_log_mel_features/stft/frame/split/log_mel_features/stft/frame/split/split_dim", "shape": [], "dtype": "int32"}, {"name": "StatefulPartitionedCall/yamnet_frames/tf_op_layer_log_mel_features/stft/frame/concat_2/log_mel_features/stft/frame/concat_2/axis", "shape": [], "dtype": "int32"}, {"name": "StatefulPartitionedCall/yamnet_frames/tf_op_layer_log_mel_features/stft/mul/log_mel_features/stft/hann_window/sub_2", "shape": [400], "dtype": "float32"}, {"name": "StatefulPartitionedCall/yamnet_frames/tf_op_layer_log_mel_features/stft/rfft/Pad/log_mel_features/stft/rfft/Pad/paddings", "shape": [2, 2], "dtype": "int32"}, {"name": "StatefulPartitionedCall/yamnet_frames/tf_op_layer_log_mel_features/stft/rfft/log_mel_features/stft/rfft/fft_length", "shape": [1], "dtype": "int32"}, {"name": "StatefulPartitionedCall/yamnet_frames/tf_op_layer_log_mel_features/MatMul/log_mel_features/linear_to_mel_weight_matrix", "shape": [257, 64], "dtype": "float32"}, {"name": "StatefulPartitionedCall/yamnet_frames/tf_op_layer_log_mel_features/add/log_mel_features/add/y", "shape": [], "dtype": "float32"}, {"name": "StatefulPartitionedCall/yamnet_frames/layer1/conv/Conv2D_weights", "shape": [3, 3, 1, 32], "dtype": "float32"}, {"name": "StatefulPartitionedCall/yamnet_frames/layer1/conv/Conv2D_bn_offset", "shape": [32], "dtype": "float32"}, {"name": "StatefulPartitionedCall/yamnet_frames/layer12/pointwise_conv/Conv2D_bn_offset", "shape": [512], "dtype": "float32"}, {"name": "StatefulPartitionedCall/yamnet_frames/layer2/depthwise_conv/depthwise_weights", "shape": [3, 3, 32, 1], "dtype": "float32"}, {"name": "StatefulPartitionedCall/yamnet_frames/layer2/depthwise_conv/depthwise_bn_offset", "shape": [32], "dtype": "float32"}, {"name": "StatefulPartitionedCall/yamnet_frames/layer2/pointwise_conv/Conv2D_weights", "shape": [1, 1, 32, 64], "dtype": "float32"}, {"name": "StatefulPartitionedCall/yamnet_frames/layer2/pointwise_conv/Conv2D_bn_offset", "shape": [64], "dtype": "float32"}, {"name": "StatefulPartitionedCall/yamnet_frames/layer3/depthwise_conv/depthwise_weights", "shape": [3, 3, 64, 1], "dtype": "float32"}, {"name": "StatefulPartitionedCall/yamnet_frames/layer3/depthwise_conv/depthwise_bn_offset", "shape": [64], "dtype": "float32"}, {"name": "StatefulPartitionedCall/yamnet_frames/layer3/pointwise_conv/Conv2D_weights", "shape": [1, 1, 64, 128], "dtype": "float32"}, {"name": "StatefulPartitionedCall/yamnet_frames/layer13/depthwise_conv/depthwise_weights", "shape": [3, 3, 512, 1], "dtype": "float32"}, {"name": "StatefulPartitionedCall/yamnet_frames/layer3/pointwise_conv/Conv2D_bn_offset", "shape": [128], "dtype": "float32"}, {"name": "StatefulPartitionedCall/yamnet_frames/layer4/depthwise_conv/depthwise_weights", "shape": [3, 3, 128, 1], "dtype": "float32"}, {"name": "StatefulPartitionedCall/yamnet_frames/layer4/depthwise_conv/depthwise_bn_offset", "shape": [128], "dtype": "float32"}, {"name": "StatefulPartitionedCall/yamnet_frames/layer4/pointwise_conv/Conv2D_weights", "shape": [1, 1, 128, 128], "dtype": "float32"}, {"name": "StatefulPartitionedCall/yamnet_frames/layer13/depthwise_conv/depthwise_bn_offset", "shape": [512], "dtype": "float32"}, {"name": "StatefulPartitionedCall/yamnet_frames/layer4/pointwise_conv/Conv2D_bn_offset", "shape": [128], "dtype": "float32"}, {"name": "StatefulPartitionedCall/yamnet_frames/layer5/depthwise_conv/depthwise_weights", "shape": [3, 3, 128, 1], "dtype": "float32"}, {"name": "StatefulPartitionedCall/yamnet_frames/layer5/depthwise_conv/depthwise_bn_offset", "shape": [128], "dtype": "float32"}, {"name": "StatefulPartitionedCall/yamnet_frames/layer5/pointwise_conv/Conv2D_weights", "shape": [1, 1, 128, 256], "dtype": "float32"}, {"name": "StatefulPartitionedCall/yamnet_frames/layer5/pointwise_conv/Conv2D_bn_offset", "shape": [256], "dtype": "float32"}, {"name": "StatefulPartitionedCall/yamnet_frames/layer13/pointwise_conv/Conv2D_weights", "shape": [1, 1, 512, 1024], "dtype": "float32"}, {"name": "StatefulPartitionedCall/yamnet_frames/layer6/depthwise_conv/depthwise_weights", "shape": [3, 3, 256, 1], "dtype": "float32"}, {"name": "StatefulPartitionedCall/yamnet_frames/layer6/depthwise_conv/depthwise_bn_offset", "shape": [256], "dtype": "float32"}, {"name": "StatefulPartitionedCall/yamnet_frames/layer6/pointwise_conv/Conv2D_weights", "shape": [1, 1, 256, 256], "dtype": "float32"}, {"name": "StatefulPartitionedCall/yamnet_frames/layer6/pointwise_conv/Conv2D_bn_offset", "shape": [256], "dtype": "float32"}, {"name": "StatefulPartitionedCall/yamnet_frames/layer13/pointwise_conv/Conv2D_bn_offset", "shape": [1024], "dtype": "float32"}, {"name": "StatefulPartitionedCall/yamnet_frames/layer7/depthwise_conv/depthwise_weights", "shape": [3, 3, 256, 1], "dtype": "float32"}, {"name": "StatefulPartitionedCall/yamnet_frames/layer7/depthwise_conv/depthwise_bn_offset", "shape": [256], "dtype": "float32"}, {"name": "StatefulPartitionedCall/yamnet_frames/layer7/pointwise_conv/Conv2D_weights", "shape": [1, 1, 256, 512], "dtype": "float32"}, {"name": "StatefulPartitionedCall/yamnet_frames/layer7/pointwise_conv/Conv2D_bn_offset", "shape": [512], "dtype": "float32"}, {"name": "StatefulPartitionedCall/yamnet_frames/layer8/depthwise_conv/depthwise_weights", "shape": [3, 3, 512, 1], "dtype": "float32"}, {"name": "StatefulPartitionedCall/yamnet_frames/layer8/depthwise_conv/depthwise_bn_offset", "shape": [512], "dtype": "float32"}, {"name": "StatefulPartitionedCall/yamnet_frames/layer8/pointwise_conv/Conv2D_weights", "shape": [1, 1, 512, 512], "dtype": "float32"}, {"name": "StatefulPartitionedCall/yamnet_frames/layer14/depthwise_conv/depthwise_weights", "shape": [3, 3, 1024, 1], "dtype": "float32"}, {"name": "StatefulPartitionedCall/yamnet_frames/layer8/pointwise_conv/Conv2D_bn_offset", "shape": [512], "dtype": "float32"}, {"name": "StatefulPartitionedCall/yamnet_frames/layer9/depthwise_conv/depthwise_weights", "shape": [3, 3, 512, 1], "dtype": "float32"}, {"name": "StatefulPartitionedCall/yamnet_frames/layer9/depthwise_conv/depthwise_bn_offset", "shape": [512], "dtype": "float32"}, {"name": "StatefulPartitionedCall/yamnet_frames/layer9/pointwise_conv/Conv2D_weights", "shape": [1, 1, 512, 512], "dtype": "float32"}, {"name": "StatefulPartitionedCall/yamnet_frames/layer14/depthwise_conv/depthwise_bn_offset", "shape": [1024], "dtype": "float32"}, {"name": "StatefulPartitionedCall/yamnet_frames/layer9/pointwise_conv/Conv2D_bn_offset", "shape": [512], "dtype": "float32"}, {"name": "StatefulPartitionedCall/yamnet_frames/layer10/depthwise_conv/depthwise_weights", "shape": [3, 3, 512, 1], "dtype": "float32"}, {"name": "StatefulPartitionedCall/yamnet_frames/layer10/depthwise_conv/depthwise_bn_offset", "shape": [512], "dtype": "float32"}, {"name": "StatefulPartitionedCall/yamnet_frames/layer10/pointwise_conv/Conv2D_weights", "shape": [1, 1, 512, 512], "dtype": "float32"}, {"name": "StatefulPartitionedCall/yamnet_frames/layer10/pointwise_conv/Conv2D_bn_offset", "shape": [512], "dtype": "float32"}, {"name": "StatefulPartitionedCall/yamnet_frames/layer14/pointwise_conv/Conv2D_weights", "shape": [1, 1, 1024, 1024], "dtype": "float32"}, {"name": "StatefulPartitionedCall/yamnet_frames/layer11/depthwise_conv/depthwise_weights", "shape": [3, 3, 512, 1], "dtype": "float32"}, {"name": "StatefulPartitionedCall/yamnet_frames/layer11/depthwise_conv/depthwise_bn_offset", "shape": [512], "dtype": "float32"}, {"name": "StatefulPartitionedCall/yamnet_frames/layer11/pointwise_conv/Conv2D_weights", "shape": [1, 1, 512, 512], "dtype": "float32"}, {"name": "StatefulPartitionedCall/yamnet_frames/layer11/pointwise_conv/Conv2D_bn_offset", "shape": [512], "dtype": "float32"}, {"name": "StatefulPartitionedCall/yamnet_frames/layer14/pointwise_conv/Conv2D_bn_offset", "shape": [1024], "dtype": "float32"}, {"name": "StatefulPartitionedCall/yamnet_frames/layer12/depthwise_conv/depthwise_weights", "shape": [3, 3, 512, 1], "dtype": "float32"}, {"name": "StatefulPartitionedCall/yamnet_frames/layer12/depthwise_conv/depthwise_bn_offset", "shape": [512], "dtype": "float32"}, {"name": "StatefulPartitionedCall/yamnet_frames/layer12/pointwise_conv/Conv2D_weights", "shape": [1, 1, 512, 512], "dtype": "float32"}, {"name": "ConstantFolding/StatefulPartitionedCall/yamnet_frames/tf_op_layer_log_mel_features/stft/frame/concat/values_1/log_mel_features/stft/frame/concat/values_1_const_axis", "shape": [], "dtype": "int32"}, {"name": "ConstantFolding/StatefulPartitionedCall/yamnet_frames/tf_op_layer_feature_patches/frame/concat/values_1/feature_patches/frame/concat/values_1_const_axis", "shape": [], "dtype": "int32"}]}]}